examples/src/main/resources/deepar.pt (torch, 133741 bytes, 10 tensors)

weight f4 [1, 40]
0	0x3c788acc	0.0151698105
1	0xbd8b4cf8	-0.0680179
2	0x3c3bf409	0.011471757
3	0xbe3f359c	-0.18672794
4	0x3d88fba5	0.066886224
5	0x3de190e1	0.110139616
6	0x3e13dbbe	0.14439294
7	0xbe1654f5	-0.14680846
8	0xbcbeb49e	-0.023279484
9	0x3e0c1030	0.1367805
10	0x3db2055f	0.08692431
11	0xbde3e431	-0.111275084
12	0xbe2b60c7	-0.16736136
13	0xbd6f4caa	-0.058422722
14	0xbd384c4d	-0.04499464
15	0xbcbdc2a6	-0.023164105
16	0x3e44a6b1	0.19204213
17	0x3d01ef17	0.031722154
18	0xbe122c3e	-0.1427469
19	0xbe010e57	-0.12603126
20	0xbdb38a46	-0.08766608
21	0xbdcb650a	-0.09931381
22	0xbdbc9e4e	-0.09209882
23	0x3dabe469	0.08393175
24	0x3e0a6baa	0.13517633
25	0x3e02a613	0.12758665
26	0x3d92402b	0.07141145
27	0x3cd887b3	0.026431894
28	0xbb2cc93a	-0.0026365058
29	0xbc50e97b	-0.012750979
30	0x3c82483c	0.015903585
31	0x3c47e612	0.012200849
32	0x3e1e9964	0.15488201
33	0xbcd1ae38	-0.02559577
34	0xbca398d7	-0.01997034
35	0xbe04083e	-0.12893769
36	0x3e38a8d1	0.18033148
37	0xbd880ceb	-0.06643089
38	0x3ce6c309	0.028169172
39	0x3c394574	0.011308063

weight f4 [1, 40]
0	0xbd75f4d9	-0.060047958
1	0xbd8ce466	-0.06879501
2	0x3e33a599	0.17543639
3	0xbd9a58dc	-0.0753648
4	0x3dfcd189	0.12344653
5	0x3d94b1bb	0.07260462
6	0x3d5a8139	0.053345893
7	0xbc8927ae	-0.016742554
8	0x3d3d73a0	0.046252847
9	0xbe058b9f	-0.13041542
10	0x3db0f502	0.086404815
11	0x3d4d8fb1	0.050185863
12	0xbd88a9a3	-0.06672981
13	0xbdd6b46c	-0.104836315
14	0xbcdafbb9	-0.026731359
15	0x3de58b70	0.11208236
16	0x3e25d5b9	0.1619481
17	0xbc81f367	-0.015863134
18	0xbbbd9633	-0.0057857274
19	0x3deb6bca	0.114951685
20	0xbd6eb276	-0.058275662
21	0xbd6aaafc	-0.05729197
22	0x3cf4f9fc	0.029904358
23	0x3d7ecdda	0.062208034
24	0x3d3f52f3	0.046709966
25	0xbdeaa131	-0.11456526
26	0xbd8939c3	-0.0670047
27	0xbe377a58	-0.17917764
28	0xbe424bad	-0.1897418
29	0xbd55992a	-0.05214802
30	0xbe324508	-0.17409146
31	0xbe081f3b	-0.13293163
32	0xbd37874e	-0.04480677
33	0x3dad6fc4	0.08468583
34	0x3d2c8e0e	0.04212766
35	0xbbc607b5	-0.006043399
36	0x3db6747b	0.08908936
37	0xbcb4ad4d	-0.022055293
38	0x3d04b50b	0.03239922
39	0x3e058bf1	0.13041665

weight_ih_l0 f4 [160, 24]
0	0xbd803a81	-0.06261159
1	0x3d5699c3	0.052392732
2	0xbdce0d26	-0.100611016
3	0xbe072457	-0.13197456
4	0x3d78ecc0	0.060772657
5	0x3dd8be9e	0.10583232
6	0xbcde3e7a	-0.0271294
7	0x3dd173b2	0.10227145
8	0x3dc83f2c	0.09777674
9	0x3d5b275e	0.05350434
10	0xbdac8595	-0.08423916
11	0x3dee1cc7	0.116265826
12	0x3d95bcb3	0.07311382
13	0x3dcfd06e	0.10147177
14	0x3da48f21	0.08035112
15	0x3d18ac1c	0.03727351
16	0xbe12fe17	-0.1435474
17	0xbe1b1218	-0.15143621
18	0x3de69353	0.112585686
19	0x3dcac33a	0.09900518
20	0xbda217e4	-0.07914713
21	0xbdb9840e	-0.090583906
22	0xbcb208dd	-0.021732742
23	0x3d706e70	0.05869907
24	0xbdbe173f	-0.092817776
25	0xbd13dd0f	-0.03609949
26	0x3d87f092	0.06637682
27	0xba6b13b5	-0.0008967475
28	0xbc33e92e	-0.010980887
29	0xbd3704ca	-0.0446823
30	0xbde19d7b	-0.11016365
31	0x3dd20b7d	0.102560975
32	0x3e20ccae	0.15703079
33	0xbd5a1b97	-0.053248968
34	0x3d4d3f7e	0.05010938
35	0x3e014d8c	0.12627238
36	0x3e288e7b	0.16460602
37	0xbd9a8ca9	-0.0754636
38	0xbd00fea4	-0.031492844
39	0x3dc28cd3	0.09499516
40	0x3e4c9cc6	0.1998168
41	0x3e004a40	0.12528324
42	0xbe41646a	-0.18885961
43	0xbd48c2cc	-0.049013898
44	0xbd9a682f	-0.07539403
45	0xbc359a88	-0.011084206
46	0x3dca8717	0.098890476
47	0x3e2f145b	0.17097609
48	0xbd47c569	-0.04877225
49	0x3d2583be	0.040408842
50	0xbd782a12	-0.060586996
51	0x3c9fd1e6	0.019509267
52	0x3d6d1184	0.057878032
53	0xbd99c709	-0.07508666
54	0x3dffcdcc	0.124904245
55	0x3cae8560	0.021303833
56	0x3d1fd48b	0.039021056
57	0xbde682a8	-0.112553895
58	0xbdf761cf	-0.120792024
59	0xbdad59ca	-0.084643915
60	0xbdcc18e9	-0.09965689
61	0x3e06b17b	0.13153641
62	0x3c405370	0.011738643
63	0xbc95303e	-0.01821148
64	0x3d98988d	0.07450972
65	0xbd972884	-0.073807746
66	0x3d6d2e82	0.05790568
67	0x3c8e5f4a	0.017379422
68	0x3e1d09ae	0.15335724
69	0x3de9d448	0.114174426
70	0x3d3b078a	0.045661487
71	0x3e169464	0.14705044
72	0x3d4d9d90	0.05019909
73	0x3dfdf410	0.12400067
74	0xbd0f92ae	-0.035051994
75	0xbdcd5f4b	-0.10027941
76	0x3e21ada4	0.15788895
77	0xbd3812c2	-0.044939764
78	0x3ca7e5d7	0.020495338
79	0x3cdf7c08	0.027280822
80	0x3e2bc761	0.16775276
81	0x3d6443fd	0.0557289
82	0xbd3efc8c	-0.046627566
83	0x3e36bf2f	0.17846368
84	0x3d99f1d8	0.07516831
85	0x3c8cd077	0.017189248
86	0xbd11d3ee	-0.035602503
87	0x3d51bcb2	0.051205344
88	0x3dd6adb5	0.10482351
89	0xbdc719c1	-0.09721709
90	0xbe0e69f7	-0.1390761
91	0x3e152cbc	0.14567846
92	0x3d45caf1	0.048289243
93	0xbd04315a	-0.032273628
94	0x3dde6da5	0.10860757
95	0x3d9700fc	0.07373235
96	0x3dc874ab	0.09787878
97	0x3deb7c04	0.114982635
98	0xbd4d6ef6	-0.05015465
99	0x3d0aa2f2	0.033846803
100	0x3a7820a0	0.0009465311
101	0x3d972618	0.07380313
102	0x3e109073	0.14117603
103	0xbdfaee1e	-0.122524485
104	0x3e2a595b	0.16635649
105	0xbc291ea8	-0.01032225
106	0x3db61401	0.08890534
107	0x3da9b6eb	0.08286842
108	0x3e2631cc	0.16229934
109	0x3df95cf0	0.121759295
110	0x3db8eb6c	0.09029278
111	0xbd973bba	-0.07384439
112	0xbc800fea	-0.015632588
113	0xbd70013b	-0.058594923
114	0x3d0e5ca5	0.03475632
115	0xbd6f1dab	-0.058377903
116	0x3d9b15cc	0.07572517
117	0x3db2fae1	0.087392576
118	0x3c9cc080	0.01913476
119	0xbdd174e1	-0.10227371
120	0xbd8b0bfb	-0.067893945
121	0xbda7a832	-0.081863776
122	0x3e162859	0.14663829
123	0x3d5247ba	0.051337935
124	0x3dab93d1	0.08377803
125	0xbd031559	-0.03200278
126	0xbd759a6f	-0.059961732
127	0x3e0ea4ad	0.13930006
128	0x3d97e59f	0.074168436
129	0xbd75a2dd	-0.05996977
130	0x3bb1ffa0	0.005432084
131	0xbe0349c8	-0.12821114
132	0x3c1ddcdb	0.009635176
133	0x3e102ae8	0.14078867
134	0xbdcd7263	-0.10031583
135	0xbb8f4bf4	-0.004373068
136	0x3e09db1f	0.13462494
137	0xbda42c92	-0.080163136
138	0xbe37f3cf	-0.179641
139	0xbd819bfd	-0.063285805
140	0x3db6f9ac	0.0893434
141	0x3daca5cd	0.084300615
142	0x3df57bed	0.119865276
143	0xbda7d6a4	-0.08195236
144	0x3ddabb91	0.10680307
145	0x3e225db6	0.1585606
146	0xbd49e8c0	-0.049294233
147	0xbe1ca3a4	-0.15296799
148	0x3e20694b	0.15665166
149	0x3d9788aa	0.073991135
150	0xbcbeb45a	-0.023279358
151	0x3dac2b36	0.08406679
152	0x3d936a54	0.07198015
153	0x3d851193	0.06497493
154	0x3d2949f7	0.041330304
155	0xbdcbf543	-0.09958889
156	0xbddf39f7	-0.10899728
157	0xbe0b4268	-0.1359955
158	0xbe0bcde7	-0.13652764
159	0xbe0032d7	-0.12519394
160	0xbdd0f279	-0.10202498
161	0x3d86d6fa	0.06583972
162	0x3d32e6ef	0.043677267
163	0x3d8a2403	0.0674515
164	0x3c8d47fb	0.017246237
165	0x3d9c6c70	0.0763787
166	0xbc988d44	-0.018622048
167	0x3da1d38a	0.07901676
168	0xbd1ded1d	-0.038556207
169	0x3df199cb	0.11796912
170	0xbddf54f3	-0.10904875
171	0x3e14bc08	0.14524853
172	0xbda7bb9e	-0.08190082
173	0x3d4f2dd0	0.0505808
174	0xbcbb1728	-0.02283819
175	0x3decc6d8	0.11561364
176	0xbb8acaa1	-0.004235581
177	0x3df3dce5	0.11907367
178	0x3d51a7a0	0.05118525
179	0x3d49eee9	0.049300108
180	0x3d6550c4	0.055985227
181	0xbcbbed60	-0.022940338
182	0xbcea1138	-0.028572664
183	0xbdfe9bcc	-0.1243206
184	0xbd112faf	-0.035445865
185	0xbd651f9f	-0.05593836
186	0x3cfaed00	0.030630589
187	0xbdb288e1	-0.08717514
188	0xbb470feb	-0.0030374478
189	0xbd5b4565	-0.053532977
190	0xbdc4c03f	-0.096069805
191	0x3c65212a	0.013984958
192	0xbdb3a31e	-0.087713465
193	0xbb875cca	-0.0041309344
194	0x3cd3e464	0.025865741
195	0x3e0b4188	0.13599217
196	0xbd992270	-0.074772716
197	0x3d7e6c6c	0.062115118
198	0xbe0a9b8e	-0.13535902
199	0x3d81d686	0.06339745
200	0xbdacf4b5	-0.08445112
201	0x3dc1abda	0.09456606
202	0xbdabe2ca	-0.08392866
203	0x3deeb1ff	0.11655044
204	0xbd5388d7	-0.051644173
205	0x3e1be5f7	0.15224443
206	0x3db0ec18	0.08638781
207	0x3d388a4b	0.04505376
208	0x3c37f345	0.011227434
209	0xbe03f0c8	-0.1288482
210	0xbdbac62a	-0.09119828
211	0xbc9ca9de	-0.019123968
212	0xbcf2f804	-0.029659279
213	0x3df9cc0e	0.121971235
214	0xbce98912	-0.028507743
215	0x3e3ba4b9	0.18324555
216	0x3ce71532	0.028208349
217	0x3dcc8360	0.09985995
218	0xbe1ad850	-0.15121579
219	0xbd40d289	-0.047075782
220	0x3e2fe240	0.17176151
221	0x3dcb45f6	0.09925453
222	0xbe10ca2f	-0.14139627
223	0x3e2246c2	0.15847304
224	0x3e0265f1	0.127342
225	0x3ddc061a	0.10743351
226	0xbca9db76	-0.02073453
227	0x3c189d7f	0.009314894
228	0x3d25ecb4	0.04050894
229	0x3cb81c83	0.022474533
230	0x3ce58875	0.02801917
231	0x3db6330f	0.088964574
232	0x3e01ff9c	0.12695163
233	0xbda81dbd	-0.08208797
234	0x3e0bf549	0.13667788
235	0x3dba31eb	0.09091552
236	0xbda1152d	-0.07865367
237	0x3e249ff6	0.16076645
238	0x3e0d4fca	0.13799968
239	0xbd158cc3	-0.036511194
240	0xbdb39b5f	-0.08769869
241	0x3d94b171	0.07260407
242	0x3e1df31d	0.15424772
243	0xbd22a613	-0.039709162
244	0x3e2d72e8	0.16938365
245	0x3e0ae29a	0.13563004
246	0xbdf341bd	-0.11877773
247	0xbd800d3a	-0.06252523
248	0xbd9407d0	-0.072280526
249	0xbc654dfb	-0.013995643
250	0xbd991cff	-0.07476234
251	0x3d4376b8	0.04772064
252	0xbda48789	-0.08033664
253	0x3e21cc59	0.15800609
254	0xbd6942fa	-0.05694864
255	0xbded443a	-0.11585279

weight_hh_l0 f4 [160, 40]
0	0x3d26692d	0.040627647
1	0x3cf76f8c	0.030204557
2	0xbd3da882	-0.04630328
3	0xbdcae5fe	-0.09907149
4	0x3da3528c	0.07974729
5	0xbda8a07e	-0.082337365
6	0xbd445068	-0.047928244
7	0x3c16c330	0.00920181
8	0x3e10ac9e	0.14128348
9	0xbdea6f11	-0.114469655
10	0x3d297546	0.041371606
11	0x3d8a5009	0.06753547
12	0xbac48172	-0.0014992191
13	0xbe061dad	-0.13097258
14	0x3b69c3de	0.0035669724
15	0xbd1eeb6d	-0.03879874
16	0xbc86ea99	-0.016469287
17	0x3c2703ae	0.010193748
18	0xbc686f4f	-0.014186694
19	0xbdcfa5ed	-0.1013907
20	0xbdafdd1d	-0.08587096
21	0xbdc8a0a6	-0.09796266
22	0x3d2cd294	0.04219301
23	0xbd351e68	-0.04421845
24	0x3e0e2449	0.13881029
25	0xbbc03561	-0.0058657383
26	0xbcf2c84b	-0.029636523
27	0x3c336502	0.010949375
28	0x3dc37d87	0.09545427
29	0x3d28678e	0.041114382
30	0xbd9a8694	-0.075452
31	0xbe11b065	-0.14227445
32	0xbe2bbc78	-0.16771114
33	0xbe081932	-0.13290861
34	0x3ca7bd73	0.020476079
35	0xbc7b64c3	-0.015343848
36	0x3cf07d7c	0.02935671
37	0x3c932a9e	0.017964657
38	0x3cb7038f	0.022340564
39	0x3c25bbb1	0.01011555
40	0x3d7f1460	0.06227529
41	0x3e4b1683	0.19832806
42	0xbd704910	-0.058663428
43	0x3e33133a	0.17487803
44	0x3ce91dfb	0.028456679
45	0x3bec31f4	0.0072081033
46	0xbd9091c4	-0.070590526
47	0xbda91b7e	-0.08257197
48	0x3de0ef93	0.10983195
49	0x3dae2c4d	0.085045435
50	0x3e2f430d	0.17115422
51	0x3e3818ab	0.1797816
52	0xbd4f4344	-0.05060126
53	0x3e2df425	0.16987665
54	0xbe04a801	-0.12954713
55	0xbbc1ba0c	-0.005912071
56	0x3e2def59	0.16985835
57	0x3e50955a	0.20369473
58	0x3e1d4fd2	0.1536248
59	0xbd5fedc5	-0.054670114
60	0xbd444304	-0.047915474
61	0xbd4bffd8	-0.04980454
62	0x3d87a23b	0.0662274
63	0x3d34290a	0.04398445
64	0xbe0d49a6	-0.13797626
65	0x3c35498c	0.011064898
66	0xbe2a48bc	-0.16629308
67	0x3c96277d	0.018329376
68	0xbd0117b0	-0.03151673
69	0xbd7767aa	-0.060401596
70	0xbc43d3e8	-0.011952378
71	0x3ddda1b0	0.10821855
72	0x3c518771	0.012788639
73	0xbd81644b	-0.063179575
74	0x3d34ab09	0.044108424
75	0x3e2da142	0.16956046
76	0x3e3eaff6	0.18621811
77	0xba2e47bc	-0.00066482625
78	0xbd81011b	-0.06299039
79	0xbd9fecf8	-0.0780887
80	0x3def3eee	0.11681925
81	0x3dde9f89	0.10870273
82	0x3d60643d	0.054783095
83	0x3e04b753	0.12960558
84	0x3dcc8ce8	0.09987813
85	0x3e1958fc	0.14975351
86	0x3cba5395	0.022744933
87	0xbde440b6	-0.11145155
88	0x3e07dfaa	0.13268915
89	0xbdf8cce6	-0.12148456
90	0x3d210680	0.03931284
91	0x3dd3e659	0.1034667
92	0xbd496b89	-0.04917482
93	0x3dc6b6c9	0.09702832
94	0xbdc4c21b	-0.09607335
95	0xbd036a78	-0.03208396
96	0xbd8446e9	-0.064588375
97	0x3df90344	0.12158826
98	0xbc94871a	-0.018130828
99	0x3c668166	0.014068937
100	0x3e08ddf6	0.13365921
101	0x3da5bcd5	0.080926575
102	0x3d867852	0.06565918
103	0x3dbbad70	0.0916394
104	0x3e028dfd	0.12749477
105	0x3d509ae2	0.050928958
106	0x3db30e1b	0.08742925
107	0x3dd00587	0.10157304
108	0xbe36be3a	-0.17846003
109	0x3d9627a5	0.0733178
110	0x3ddf5c24	0.10906246
111	0xbe008cc4	-0.12553698
112	0xbd48251c	-0.048863515
113	0xbe07704f	-0.13226436
114	0xbd16c273	-0.036806535
115	0xbded8365	-0.11597327
116	0x3df24275	0.11829082
117	0xbb1cfa0b	-0.0023952748
118	0xbe14a7fd	-0.14517207
119	0x3dd6c8b2	0.10487498
120	0xbe0a9a52	-0.13535431
121	0x3e37c76b	0.17947166
122	0x3d23d4e6	0.039997958
123	0x3dbb505e	0.09146188
124	0x3c9a9555	0.018870035
125	0x3dff0da2	0.12453772
126	0x3d7db7d1	0.06194288
127	0x3e120be6	0.14262351
128	0x3e0055af	0.12532686
129	0xbd78f294	-0.060778216
130	0x3df466f7	0.119337015
131	0xbd2bbf0f	-0.041930255
132	0x3dd242ba	0.10266633
133	0xbd7360b7	-0.059418406
134	0x3e20151e	0.15633056
135	0x3d9b5c6f	0.0758599
136	0x3e30e576	0.17275032
137	0x3dfa83a9	0.122321434
138	0xbdd66628	-0.104687035
139	0xbd3a5a52	-0.045496292
140	0xbcb40a2e	-0.02197751
141	0xbd086f6a	-0.033309378
142	0x3d04871a	0.032355405
143	0xbdae8a3b	-0.08522459
144	0xbe0142fa	-0.12623206
145	0x3d987869	0.074448414
146	0xbb9cea8e	-0.0047887033
147	0xbdab6b94	-0.08370128
148	0x3e01a2d5	0.12659772
149	0x3e2649e0	0.16239119
150	0xbe193753	-0.14962511
151	0xbe25ac0b	-0.1617891
152	0x3db82acc	0.08992538
153	0x3c080510	0.008301988
154	0x3cc062b1	0.02348456
155	0xbd2b31e6	-0.041795634
156	0xbd593d49	-0.05303696
157	0xbdefb55a	-0.11704512
158	0xbd0dbd63	-0.03460444
159	0x3d04274c	0.03226404
160	0x3c9252ce	0.01786175
161	0xbbdf2bc6	-0.006810638
162	0x3e0e735d	0.13911195
163	0xbdca9ef8	-0.09893602
164	0xbd4e5ba8	-0.05038038
165	0x3e2eb46e	0.17061016
166	0xbd6f1833	-0.058372688
167	0x3dfe852b	0.124277435
168	0x3dda49fd	0.106586434
169	0x3dce0f00	0.10061455
170	0xbe0aa45f	-0.13539265
171	0x3d9d31d6	0.07675521
172	0x3d95d880	0.07316685
173	0xbd2ba614	-0.04190643
174	0xbe0722c6	-0.13196859
175	0xbcb30030	-0.021850675
176	0xbe0f2876	-0.13980278
177	0xbdc2ba53	-0.09508195
178	0x3da7102c	0.081573814
179	0xbdc4433d	-0.09583137
180	0xbd0a4e60	-0.03376615
181	0xbdf765ab	-0.120799385
182	0xbc96699e	-0.01836091
183	0xbd68a3a5	-0.05679669
184	0xbe24b05f	-0.16082905
185	0x3df31398	0.118689716
186	0x3c8ef370	0.017450064
187	0xbdaef778	-0.08543295
188	0xbdf43792	-0.11924662
189	0x3cbba668	0.022906497
190	0xbe1402ef	-0.14454244
191	0x3d501b42	0.050807245
192	0x3da41c3f	0.080132
193	0xbd8e889b	-0.06959649
194	0xbd58ddaf	-0.05294579
195	0x3e325f22	0.17419103
196	0xbd16512b	-0.0366985
197	0xbb96de6c	-0.0046041515
198	0xbbd7dfcf	-0.0065879594
199	0x3d8bf482	0.068337455
200	0xbe0bdfb6	-0.13659558
201	0x3cc36e72	0.023856375
202	0xbe0a3d23	-0.13499884
203	0x3df9cbbf	0.121970646
204	0xbdabd1bb	-0.08389612
205	0xbde32c52	-0.11092438
206	0x3d3ea4e1	0.04654396
207	0x3dc73950	0.09727728
208	0xbd8653ce	-0.06558953
209	0xbdf57d66	-0.119868085
210	0x3dab2bf1	0.083579905
211	0x3c9cfaaf	0.019162504
212	0x3e0b469d	0.13601156
213	0x3e0d1385	0.13776977
214	0xbdb9828b	-0.09058102
215	0x3d7f4153	0.062318157
216	0xbe183930	-0.14865565
217	0xbda51016	-0.08059709
218	0x3b9b5e24	0.004741447
219	0xba320faa	-0.0006792495
220	0x3e3b859c	0.18312687
221	0xbdb8f386	-0.090308234
222	0x3b5eb6bb	0.0033983428
223	0xbbf27af6	-0.007399912
224	0x3d6efb4e	0.05834513
225	0x3df2c559	0.11854047
226	0xbe1b9da8	-0.1519686
227	0xbdde4d3c	-0.10854575
228	0x3da81a24	0.08208111
229	0x3d5191fc	0.051164612
230	0x3d84523e	0.06460999
231	0x3db4be2d	0.08825336
232	0xbc9b1c8c	-0.01893451
233	0x3d7499d0	0.059717
234	0xbbf1f9f9	-0.0073845354
235	0xbdf72913	-0.12068381
236	0x3e2e8048	0.17041123
237	0xbdb7b3d8	-0.08969849
238	0x3dfa9719	0.12235851
239	0xbd2e904a	-0.042618074
240	0xb9fa0d76	-0.00047693745
241	0x3dc72af6	0.09724991
242	0xbe17d044	-0.14825541
243	0xbe286dfd	-0.16448207
244	0x3d8285f4	0.06373206
245	0x3d7daaa4	0.061930314
246	0xbd6dfb71	-0.05810112
247	0x3d3d21d4	0.04617484
248	0x3e242978	0.16031444
249	0x3d1dad97	0.038495626
250	0xbd1e634d	-0.03866892
251	0xbdc16dd9	-0.0944478
252	0x3d5be54f	0.053685483
253	0x3dbf211b	0.09332486
254	0x3d629bb5	0.055324275
255	0x3ddd9aef	0.10820567

bias_ih_l0 f4 [160]
0	0xbd9860e0	-0.074403524
1	0x3c4181ea	0.011810759
2	0xbdb78e48	-0.08962685
3	0xbda405b2	-0.08008899
4	0x3e251984	0.16123015
5	0x3dac3428	0.084083855
6	0x3e0f1fcf	0.13976978
7	0x3ddd425a	0.10803671
8	0xbd98fa83	-0.07469656
9	0xbc6bb0e2	-0.014385434
10	0x3e37bdb1	0.17943455
11	0x3c28bc6a	0.010298828
12	0x3e141c23	0.14463858
13	0xbcf6976b	-0.030101499
14	0x3daae318	0.08344096
15	0x3dac0c38	0.08400768
16	0x3e035146	0.12823972
17	0x3d588268	0.05285874
18	0xbe1b1afe	-0.15147015
19	0xbdbb81a2	-0.09155585
20	0xbc590091	-0.013244764
21	0xbc945ab4	-0.018109657
22	0x3dad9553	0.08475747
23	0x3dd90a85	0.105977096
24	0x3e3eca99	0.18631972
25	0x3e45ea27	0.19327603
26	0xbc974d80	-0.018469572
27	0x3dd8605c	0.10565254
28	0x3e556469	0.20839085
29	0x3ded12e3	0.11575868
30	0x3e14060f	0.14455436
31	0xbb7b4560	-0.0038340911
32	0x3c5ad07c	0.013355371
33	0x3de3f546	0.111307666
34	0x3e2be4c7	0.1678649
35	0x3d02e1a0	0.031953454
36	0x3d7097fe	0.0587387
37	0xbdcebf0b	-0.10095032
38	0x3e2dae04	0.16960913
39	0x3e12abb4	0.14323312
40	0xbdc5d401	-0.09659577
41	0x3e252abc	0.16129583
42	0xb6d02d00	-6.2041217e-06
43	0x3e24e028	0.16101134
44	0xbde66c00	-0.11251068
45	0x3e0ce2e2	0.13758424
46	0x3e16b0c0	0.14715862
47	0xbd694a3a	-0.056955554
48	0x3d71d4a8	0.059040695
49	0xbdb509be	-0.08839749
50	0xbdcd63da	-0.10028811
51	0xbe01d42e	-0.12678596
52	0x3d6f0bb2	0.058360763
53	0x3ddc8830	0.10768163
54	0x3d5136c3	0.051077615
55	0xbdbc18f7	-0.09184449
56	0x3e33cb49	0.17558016
57	0xbda60658	-0.08106679
58	0x3da5b2e4	0.08090761
59	0x3b507ea7	0.0031813772
60	0xbd8cc635	-0.068737425
61	0x3d9a8446	0.075447604
62	0x3d43abb2	0.047771163
63	0xbd88a09d	-0.066712596
64	0xbd6396d3	-0.05556376
65	0xbc564040	-0.013076842
66	0xbd51dc7b	-0.051235657
67	0x3cee9c4e	0.029127266
68	0x3c8f95ca	0.01752748
69	0xbcbb4229	-0.022858696
70	0x3e4997f7	0.19686876
71	0x3da210a7	0.079133324
72	0x3ce02c9d	0.027365023
73	0xbb8e3601	-0.004339934
74	0xbc752495	-0.014962335
75	0x3d88d000	0.06680298
76	0x3e3d63c1	0.18495084
77	0xbd4a13dd	-0.04933535
78	0x3d1d0676	0.03833624
79	0x3d966d3e	0.07345055
80	0xbddea7c7	-0.10871845
81	0xbdf9f24d	-0.12204418
82	0x3d145769	0.036216173
83	0x3d9078ef	0.07054316
84	0x3df13c50	0.11779082
85	0xbc55bb97	-0.013045213
86	0x3db4d03c	0.0882878
87	0xbd7c2382	-0.0615573
88	0x3d5f62d7	0.05453762
89	0x3da4e78d	0.08051977
90	0x3d9b4dfe	0.07583235
91	0x3dc0f8b3	0.094224356
92	0x3c93d18b	0.018044254
93	0x3d3d6d22	0.046246655
94	0xbccc4538	-0.02493535
95	0x3dc8d5db	0.09806415
96	0x3d97d392	0.07413401
97	0x3e0923d9	0.13392581
98	0x3dbfcde2	0.09365441
99	0xbe25995b	-0.16171782
100	0x3d220f18	0.039565176
101	0x3e12493b	0.14285748
102	0x3da04bc6	0.07826953
103	0x3dc310ee	0.095247135
104	0x3dc95afb	0.09831806
105	0x3dadcfa4	0.0848687
106	0xbcca02dd	-0.024659568
107	0xbe0a64e9	-0.13515057
108	0xbe209fb0	-0.15685916
109	0x3de9b9aa	0.11412366
110	0xbc6b6090	-0.014366284
111	0x3e2ad806	0.16683969
112	0xbcf8f09e	-0.030388173
113	0x3df6a348	0.12042862
114	0xbd0078de	-0.031365268
115	0x3d959361	0.07303501
116	0x3e3cb649	0.18428911
117	0xbda5e77d	-0.081007935
118	0x3cb7d2e6	0.022439431
119	0xbdab1445	-0.083534755
120	0xbd4e7a47	-0.05040958
121	0xbd9b7902	-0.0759144
122	0xbdf0052c	-0.117197365
123	0x3e2bad9e	0.16765448
124	0xbcf2357d	-0.02956652
125	0x3e081470	0.13289046
126	0xbc821732	-0.015880201
127	0x3c6e2321	0.014534743
128	0x3df6e31e	0.12055038
129	0xbd2d5040	-0.04231286
130	0xbda745eb	-0.08167633
131	0xbe122d2c	-0.14275044
132	0x3d6f346d	0.058399606
133	0xbc8e322c	-0.017357908
134	0x3c1bc224	0.009506736
135	0x3c0e5f0d	0.008689654
136	0x3e0b4ae6	0.1360279
137	0x3e02c868	0.12771761
138	0x3de65cd9	0.11248178
139	0xbdabf6d7	-0.0839669
140	0xbca88e87	-0.020575775
141	0xbe1f720c	-0.15570849
142	0x3d944789	0.07240207
143	0xbd301bd3	-0.042995285
144	0x3e09d97e	0.13461873
145	0xbd91ad99	-0.07113189
146	0x3e0d6be4	0.13810688
147	0x3b88471c	0.0041588675
148	0x3d7739d4	0.060357884
149	0xbcc0e924	-0.02354867
150	0x3e22cdd3	0.15898828
151	0xbdad2d8f	-0.08455955
152	0x3d2bfa32	0.04198665
153	0xbcc16c39	-0.023611175
154	0xbd9ea309	-0.0774594
155	0xbddc86d2	-0.107679024
156	0xbd63853f	-0.055546995
157	0x3c42d0eb	0.01189063
158	0x3d1fa4dd	0.038975585
159	0x3cff777a	0.0311849

bias_hh_l0 f4 [160]
0	0x3c7367e7	0.014856315
1	0xbd4854d6	-0.04890903
2	0xbe1dedb3	-0.15422706
3	0x3d094c4b	0.033520024
4	0x3db9d852	0.09074463
5	0x3e02469f	0.12722252
6	0x3d32faac	0.04369609
7	0x3e35de39	0.17760552
8	0x3e2cb411	0.16865565
9	0xbe05f72e	-0.13082573
10	0x3dfb2dd6	0.12264602
11	0x3d51ad56	0.051190697
12	0x3e167374	0.1469248
13	0x3d0247f8	0.031806916
14	0xbcd19dad	-0.025587881
15	0x3de1014c	0.109865755
16	0xbd680667	-0.05664673
17	0x3e2bb577	0.16768442
18	0x3dd28bc2	0.10280563
19	0x3a84f173	0.0010142758
20	0xbe28a73a	-0.16470042
21	0xbdfd8535	-0.12378923
22	0xbdb9dbc7	-0.09075122
23	0x3e1efdd3	0.15526514
24	0xbd1d5acb	-0.038416665
25	0x3dd3e4ef	0.103464
26	0x3dfd602b	0.12371858
27	0xbced20f6	-0.028946381
28	0xbd98c353	-0.0745913
29	0x3de5608a	0.11200054
30	0x3d2084bd	0.03918909
31	0xbdfdbb01	-0.12389184
32	0x3dadfb5f	0.08495211
33	0x3d8f51a0	0.069979906
34	0xbc6c6208	-0.014427669
35	0x3c436b9b	0.011927511
36	0x3e42c616	0.19020876
37	0x3c2b9780	0.010473132
38	0x3d9469b7	0.07246726
39	0x3e015696	0.12630686
40	0xbde54ca5	-0.111962594
41	0x3d3c29d3	0.045938324
42	0xbd8053ee	-0.06266008
43	0x3e1a0189	0.15039648
44	0x3cc765dd	0.024340564
45	0x3e0e9653	0.13924532
46	0x3dd69a3d	0.10478637
47	0x3d8b0b72	0.067892924
48	0xbda8195c	-0.08207962
49	0x3b7fb43c	0.003901734
50	0xbdab4222	-0.08362223
51	0xbdfc1371	-0.12308396
52	0x3dd244e8	0.10267049
53	0xbdcd78b1	-0.10032786
54	0x3d3ba68f	0.04581314
55	0x3dafdf20	0.085874796
56	0x3e02dfc2	0.1278067
57	0xbd4e5f7a	-0.050384022
58	0x3de54c71	0.11196221
59	0xbd87ea9d	-0.06636546
60	0x3de94592	0.113902226
61	0xbe003d0c	-0.12523288
62	0xbdd23e93	-0.10265841
63	0x3e12fede	0.14355037
64	0x3d928c92	0.07155718
65	0x3df669e1	0.120319135
66	0x3d6749b4	0.056466773
67	0xbe021384	-0.12702757
68	0xbde27e7e	-0.11059283
69	0x3d6920b9	0.056915972
70	0xbd1f5544	-0.038899675
71	0x3ba65cca	0.0050769793
72	0xbded8eae	-0.115994796
73	0x3d7be61d	0.06149875
74	0x3e0ee0ce	0.13952944
75	0x3dd08e89	0.101834364
76	0x3c3ec828	0.011644401
77	0x3e1acbfb	0.15116875
78	0xbd8f360a	-0.06992729
79	0xbe10a342	-0.14124778
80	0x3dc794b0	0.09745157
81	0x3db311b2	0.087436095
82	0xbdc43f6f	-0.095824115
83	0x3df01e09	0.11724479
84	0x3bcce8d8	0.006253343
85	0x3d3861c5	0.045015115
86	0xbbdbd488	-0.0067086853
87	0xbd0fda2c	-0.035120174
88	0x3d8e36d0	0.069440484
89	0xbdf9a787	-0.121901564
90	0xbcf931d7	-0.030419273
91	0x3d4f7045	0.050644178
92	0x3da5ddea	0.080989674
93	0xbdc9a1cd	-0.09845314
94	0x3df59efc	0.119932145
95	0xbe2e0bc9	-0.16996683
96	0x3dc0416d	0.09387479
97	0x3e3dba6a	0.18528143
98	0xbd95e1ba	-0.073184446
99	0xbc6068ec	-0.01369689
100	0xbd22cd6c	-0.039746687
101	0x3df542f4	0.11975661
102	0xbda5ebec	-0.08101639
103	0x3dcb070c	0.099134535
104	0x3d83fe6d	0.06445012
105	0x3d185307	0.037188556
106	0xbd91a8a5	-0.071122445
107	0xbcfe1f3e	-0.031020757
108	0xbdb240c7	-0.087037615
109	0xbc6027b3	-0.01368134
110	0xbd5e1b33	-0.054225158
111	0x3ceec508	0.029146686
112	0xbdd9c80e	-0.106338605
113	0xbde9346a	-0.1138695
114	0x3e3c5f5e	0.18395755
115	0xbd7dd69d	-0.06197225
116	0x3d8bce45	0.06826452
117	0xbe12b117	-0.14325367
118	0x3e0e74b1	0.13911702
119	0xbcb7a693	-0.022418296
120	0x3cf179fd	0.029477114
121	0x3e3a14b9	0.18171968
122	0x3d2e9484	0.042622104
123	0x3e35c9f7	0.17752825
124	0xbd36826a	-0.044557966
125	0xbc1ccba9	-0.009570041
126	0x3d250a44	0.040292993
127	0x3e127f93	0.14306478
128	0xbcaef6b1	-0.021357866
129	0xbda6d094	-0.08145252
130	0x3e3404d7	0.17579971
131	0xbd744b54	-0.05964215
132	0xbd48abe9	-0.04899207
133	0xbd741d92	-0.059598513
134	0x3e0791dd	0.13239236
135	0x3d15d103	0.036576282
136	0x3d3c5466	0.045978926
137	0x3d11b491	0.035572592
138	0x3d37d65b	0.04488216
139	0xbc496fda	-0.012294734
140	0x3c5ce34f	0.013481929
141	0x3dc717bb	0.09721323
142	0x3e3e07c0	0.18557644
143	0xbda9f496	-0.08298604
144	0x3de851ef	0.113437526
145	0x3e1b7266	0.15180358
146	0xbd77e8a4	-0.060524598
147	0x3de14432	0.10999335
148	0xbd9851df	-0.07437491
149	0x3c9fd76d	0.019511903
150	0xba96eefb	-0.0011515314
151	0x3e203b2c	0.15647572
152	0x3d684203	0.05670358
153	0x3d01fcc5	0.0317352
154	0xbd7e8b4c	-0.062144563
155	0x3e1461ad	0.14490385
156	0x3ce1f686	0.027583372
157	0xbd346593	-0.04404218
158	0x3e337188	0.17523777
159	0xbc791c6a	-0.015204528

weight_ih_l1 f4 [160, 40]
0	0xbd871321	-0.065954454
1	0xbde321f5	-0.11090461
2	0xbbefea0b	-0.0073216013
3	0xbd52ee8d	-0.05149703
4	0x3d4a879e	0.04944574
5	0x3c8376e3	0.0160479
6	0x3debc2ac	0.1151174
7	0xbd7ce685	-0.061743278
8	0xbe1d568c	-0.15365046
9	0x3d75d545	0.060017843
10	0x3cd0bb9a	0.02548008
11	0xbd1b88f5	-0.03797241
12	0xbdd68e27	-0.10476332
13	0xbe195ae7	-0.14976083
14	0xbe13cada	-0.1443285
15	0xbe08fea1	-0.13378383
16	0x3d989dde	0.07451986
17	0x3d3e1988	0.046411067
18	0x3d71b26d	0.05900805
19	0x3e0b02a7	0.1357523
20	0x3dd63537	0.10459369
21	0xbdeb0a64	-0.11476591
22	0x3ddb4ab6	0.10707609
23	0xbd2424a4	-0.040074006
24	0xbd60ac01	-0.054851536
25	0xbd951fb0	-0.072814345
26	0xbc529458	-0.012852751
27	0xbe28e9d2	-0.16495445
28	0x3c8f41f6	0.017487507
29	0xbdeae338	-0.1146912
30	0xbb14bc76	-0.002269534
31	0x3e2bd4d7	0.1678041
32	0x3c784f1c	0.01515558
33	0x3df1248d	0.1177455
34	0x3d50ab45	0.050944585
35	0xbbed580d	-0.0072431625
36	0xbd716e61	-0.058943156
37	0x3bbee902	0.0058261165
38	0xbda47913	-0.080309056
39	0xbe027b8b	-0.1274244
40	0xbd5c139b	-0.053729635
41	0xbd7cbf45	-0.061705846
42	0xbc89f3a1	-0.016839804
43	0x3c9809fb	0.018559447
44	0xbda761a6	-0.08172922
45	0xbde95a43	-0.11394169
46	0x3d161f16	0.03665074
47	0x3dc135f3	0.09434118
48	0xbc54a70d	-0.012979281
49	0x3c97c557	0.018526716
50	0xbaff28b6	-0.0019467089
51	0x3bdadd40	0.006679207
52	0xbdeb9ead	-0.115048744
53	0xbe04e32a	-0.12977281
54	0xbd83030e	-0.06397067
55	0x3d90a5b1	0.07062853
56	0xbc797bea	-0.015227297
57	0xbd9a545e	-0.07535623
58	0xbd3c6dba	-0.04600308
59	0xbe0d57a2	-0.1380296
60	0x3d2a357e	0.04155492
61	0x3d46e496	0.04855784
62	0x3d688f19	0.056777094
63	0x3db0c157	0.08630627
64	0xbb3cab62	-0.0028788676
65	0x3dca0de5	0.098659314
66	0x3ca44371	0.02005169
67	0xbd9f6c04	-0.07784274
68	0x3e0ec7b6	0.13943371
69	0xbdefef10	-0.117155194
70	0xbdf15a64	-0.11784819
71	0xbe1886a4	-0.14895111
72	0xbe06a95f	-0.13150547
73	0x3e3602bd	0.17774482
74	0xbe2806d6	-0.16408858
75	0x3e367007	0.17816173
76	0x3c1529da	0.0091042165
77	0xbca42e6b	-0.020041665
78	0xbe022074	-0.12707692
79	0x3c86e1bd	0.016465062
80	0x3dc85f07	0.0978375
81	0xbdb5aff7	-0.08871453
82	0x3d77e7f6	0.06052395
83	0xbc1953e1	-0.009358377
84	0xbd3687eb	-0.044563215
85	0xbdfe04d0	-0.12403262
86	0xba21e115	-0.00061752024
87	0xbdf181e5	-0.117923535
88	0x3e23c0f7	0.15991579
89	0xbca1798b	-0.019711277
90	0xbd8da3df	-0.069160216
91	0xbd5568b9	-0.052101824
92	0xbc3bc916	-0.011461517
93	0x3d31a225	0.043367524
94	0xbc840420	-0.016115248
95	0x3d9fe09a	0.07806511
96	0xbd7edbbc	-0.062221274
97	0xbdd7bf10	-0.10534489
98	0xbdee835a	-0.11646147
99	0xbdd9d022	-0.10635401
100	0xbd057ec6	-0.032591604
101	0x3e15d4d1	0.14631964
102	0xbda1da08	-0.07902914
103	0x3d8ff9ce	0.07030068
104	0x3cbae2a3	0.022813147
105	0xbe0c7391	-0.1371596
106	0x3e01fd93	0.12694387
107	0xbd2c286d	-0.04203074
108	0xbe08c53b	-0.13356487
109	0xbe060c49	-0.13090624
110	0xbd430684	-0.047613636
111	0xbdcdc7b5	-0.10047857
112	0x3e05694d	0.1302845
113	0xbd8c5830	-0.06852758
114	0x3de18835	0.110123076
115	0x3b15a505	0.0022833955
116	0xba222ccf	-0.00061864866
117	0x3dc1d514	0.094644696
118	0x3dd4049e	0.10352443
119	0xbdad683e	-0.08467148
120	0xbba4e1ce	-0.005031801
121	0xbdb65354	-0.08902612
122	0xbbdf0f5b	-0.0068072504
123	0x3e1bc82c	0.15213078
124	0x3e47eaae	0.19523117
125	0xbd98a1fb	-0.0745277
126	0x3c7cfa85	0.015440588
127	0x3e027a1b	0.12741892
128	0xbd16121d	-0.036638368
129	0x3d852825	0.065017976
130	0x3db0640b	0.08612832
131	0x3db8941b	0.09012624
132	0xbd34519a	-0.044023134
133	0xbd9be260	-0.07611537
134	0x3d1e2b1e	0.03861534
135	0x3bba669b	0.005688501
136	0x3bba2c06	0.0056815175
137	0x3db6c541	0.08924342
138	0x3af7ab34	0.0018895627
139	0xbd8c93bc	-0.068641156
140	0x3e002d52	0.12517288
141	0xbcd16fb4	-0.02556596
142	0xbdc8b652	-0.098004
143	0x3d27ddf7	0.040983167
144	0x3b82a9ea	0.0039875405
145	0x3e3932c9	0.18085779
146	0x3d8e76d9	0.06956262
147	0xb9c466c8	-0.0003746061
148	0x3c9a0b07	0.018804086
149	0x3e072fec	0.13201874
150	0xbdeb6844	-0.114944965
151	0xbd45e53a	-0.04831431
152	0xbba0d5af	-0.0049082856
153	0xbdf236b4	-0.1182684
154	0xbd240fe2	-0.04005421
155	0x3d3679be	0.044549696
156	0x3c9d4fc8	0.019203082
157	0xbcd59da4	-0.026076145
158	0x3c2aaa60	0.010416597
159	0xbe216522	-0.15761235
160	0xbe000dc0	-0.12505245
161	0xbd91b6e6	-0.07114963
162	0xbd5ce5d2	-0.05393011
163	0xbdc997dd	-0.09843419
164	0xbe25b5f1	-0.16182686
165	0x3d43c1b0	0.047792137
166	0x3dc70539	0.09717793
167	0x3ddf0086	0.10888772
168	0xbd1818b7	-0.037132945
169	0xbd92405f	-0.07141184
170	0x3ddf6ee0	0.109098196
171	0xbe24eb07	-0.16105281
172	0xbd9d9cc6	-0.07695918
173	0xbc67ec95	-0.014155527
174	0xb8971f00	-7.206015e-05
175	0x3ce8c866	0.02841587
176	0xbdee171a	-0.116255
177	0xbe212a24	-0.15738732
178	0xbe29a7f9	-0.16567983
179	0x3d7fdc18	0.062465757
180	0xbe1ffcf2	-0.15623835
181	0xbdc99028	-0.09841949
182	0xbe19fdf1	-0.15038277
183	0xbdd49711	-0.10380376
184	0x3d47fd30	0.048825443
185	0x3d052a71	0.03251118
186	0xbe37dd63	-0.17955546
187	0x3d9b7bc4	0.07591966
188	0xbdbcb339	-0.092138715
189	0x3c3d5c8d	0.01155771
190	0x3e22572f	0.1585357
191	0x3e328b50	0.17435956
192	0x3c313091	0.010814802
193	0xbd8f488d	-0.0699626
194	0x3d87c822	0.06629969
195	0x3dcd3619	0.10020084
196	0xbdae22f0	-0.085027575
197	0xbe134a63	-0.14383845
198	0xbdc27e21	-0.094967134
199	0x3dbc9ee3	0.09209993
200	0xba2590ae	-0.00063158094
201	0xbe1d2fd1	-0.15350272
202	0x3d18e4eb	0.03732769
203	0xbd580fb8	-0.052749366
204	0x3dd86bd0	0.105674386
205	0x3dd505c0	0.10401487
206	0xbd774ea5	-0.060377736
207	0x3de8bcf3	0.11364164
208	0xbb573d20	-0.003284283
209	0x3e03b664	0.12862545
210	0x3e1b2642	0.15151313
211	0xbd2184c0	-0.03943324
212	0xbd0884d3	-0.033329796
213	0xbd2d4fd2	-0.04231245
214	0x3d0d3d28	0.03448215
215	0xbe137361	-0.14399482
216	0x3e189dad	0.14903899
217	0x3dd82890	0.10554612
218	0xbdad89d9	-0.08473558
219	0x3d6b9d30	0.057522953
220	0x3d9b19b7	0.07573264
221	0xbb16c17a	-0.0023003505
222	0x3c60bee8	0.013717391
223	0xbadaa23a	-0.0016680427
224	0x3d809d8f	0.06280052
225	0xbd2ed639	-0.042684767
226	0xbc46818e	-0.012115849
227	0xbe24a68b	-0.16079156
228	0xbe3494e3	-0.17634921
229	0x3d819b92	0.06328501
230	0xbdf2d68e	-0.11857329
231	0x3c5efe07	0.0136103695
232	0xbdd4006f	-0.10351645
233	0x3c85724e	0.016289856
234	0xbd8ae18d	-0.06781302
235	0xbe103391	-0.14082171
236	0xbdaaf311	-0.083471425
237	0x3d55a2e7	0.05215731
238	0xbde177a4	-0.11009148
239	0xbc9a8592	-0.01886252
240	0xbe3b83c6	-0.18311986
241	0xbd152465	-0.03641166
242	0xbd3d8f39	-0.046279166
243	0xbd6b7679	-0.05748603
244	0xba04846e	-0.0005055134
245	0xbc6494c0	-0.01395148
246	0xbdf6d3a1	-0.12052084
247	0xbd651af7	-0.05593392
248	0xbd26d5a3	-0.040731084
249	0xbd8b9d61	-0.06817127
250	0x3d21e2a8	0.039522797
251	0xbe01d461	-0.12678672
252	0xbdebf317	-0.11520975
253	0x3daca195	0.08429257
254	0xbddbd1a8	-0.10733348
255	0xbc514a35	-0.01277404

weight_hh_l1 f4 [160, 40]
0	0x3c987400	0.01861
1	0xbc96bf50	-0.018401772
2	0xbddd1753	-0.10795464
3	0xbe2d573b	-0.16927807
4	0xbca532ca	-0.02016582
5	0x3d72f073	0.05931134
6	0x3ce4dee0	0.027938306
7	0xbd1eebd9	-0.03879914
8	0x3da5fac1	0.08104468
9	0xbe1cc851	-0.1531079
10	0xbb2e177e	-0.0026564295
11	0xbd22ead2	-0.039774723
12	0xbe2babe7	-0.16764794
13	0xbdffcd3c	-0.12490317
14	0xbe0e1b0a	-0.13877502
15	0x3b8455e2	0.0040385583
16	0xbc50c7b0	-0.012742922
17	0xbe03e49f	-0.12880181
18	0x3dcfb054	0.10141054
19	0x3cedeb40	0.02904284
20	0x3e117729	0.14205612
21	0xbe0a4451	-0.13502623
22	0x3d202be7	0.03910437
23	0x3dbcc541	0.09217311
24	0x3db0ae83	0.086270355
25	0xbce47534	-0.027887918
26	0x3d56049b	0.052250486
27	0xbd6c9d7a	-0.05776737
28	0x3d9dd85a	0.077072814
29	0xbe300cdd	-0.17192407
30	0x3df1e832	0.11811866
31	0xbdb95a0a	-0.09050377
32	0xbdf1a9f4	-0.11799994
33	0xbd661a3c	-0.056177363
34	0xbd93401e	-0.07189964
35	0x3cfae679	0.030627476
36	0x3d9b9080	0.075959206
37	0x3d408764	0.04700412
38	0x3d65507f	0.05598497
39	0xbdb77174	-0.08957186
40	0xbe182f19	-0.14861716
41	0x3d865b12	0.06560339
42	0x3e210368	0.15723956
43	0xbe107e5a	-0.141107
44	0x3de14d3e	0.11001061
45	0x3bd0dcd9	0.0063739833
46	0x3de9ed85	0.114222564
47	0xbdff84dc	-0.12476513
48	0x3db2e896	0.087357685
49	0xbc0523e5	-0.008126234
50	0x3e089793	0.13339071
51	0x3e27259c	0.1632294
52	0xbe21f7ad	-0.15817137
53	0x3d3534b1	0.044239704
54	0xbdbfaff5	-0.09359733
55	0x3d1e41aa	0.03863684
56	0x3b0a3b51	0.0021092484
57	0xbdf635ed	-0.12022004
58	0xbdeb0cb1	-0.1147703
59	0xbd81442e	-0.06311832
60	0xbd0ecd3a	-0.034863688
61	0x3de1748b	0.11008557
62	0x3e3d52b3	0.18488578
63	0xbcd74401	-0.026277544
64	0xbdb759ce	-0.08952676
65	0xbdcac48f	-0.09900772
66	0x3ddf0e83	0.1089144
67	0xbd89fc60	-0.0673759
68	0xbe2169d7	-0.15763031
69	0xbe0b81d3	-0.13623743
70	0x3de4c865	0.11171035
71	0x3d828a34	0.063740164
72	0xbd94209c	-0.07232782
73	0x3dd13704	0.102155715
74	0x3e07bff6	0.13256821
75	0xbdeee273	-0.116642855
76	0x3dca7ea4	0.09887436
77	0x3de81421	0.11331964
78	0x3dab8dc9	0.08376653
79	0xbe0b8311	-0.13624217
80	0xbe16df74	-0.14733678
81	0x3e0b553b	0.13606732
82	0x3db3deff	0.087827675
83	0xbcc130d5	-0.023582855
84	0xbcbb251c	-0.022844844
85	0xbdd0251f	-0.1016333
86	0xbe0697a2	-0.13143781
87	0xbc2008bb	-0.0097677065
88	0xbc399fb4	-0.01132958
89	0x3df5aca1	0.11995817
90	0xbd8e87fd	-0.069595315
91	0x3e155e80	0.1458683
92	0xbe18623a	-0.1488122
93	0xbd45ab02	-0.04825879
94	0xbc82f433	-0.015985584
95	0x3d5e0337	0.054202285
96	0x3d86979f	0.06571888
97	0x3ca85300	0.02054739
98	0xbe09cdbf	-0.13457392
99	0x3d0ec7fe	0.034858696
100	0x3d5fe66f	0.054663118
101	0x3c085917	0.008322022
102	0x3c8bf576	0.017084818
103	0x3de85e27	0.11346083
104	0xbd4c7caf	-0.049923595
105	0xbe2692fa	-0.16267005
106	0x3e03c697	0.12868725
107	0x3e259ce4	0.1617313
108	0x3ddb2563	0.1070049
109	0x3dba72a0	0.09103894
110	0xbe066e3f	-0.13127993
111	0x3d497fef	0.049194273
112	0x3c8e0fd7	0.017341537
113	0x3dac2a35	0.08406488
114	0xbc1b1809	-0.00946618
115	0xbd957da2	-0.07299353
116	0xbe122352	-0.14271286
117	0xbd3092c0	-0.0431087
118	0xbcc6368d	-0.024195934
119	0xbe10cd6a	-0.14140859
120	0xbddd5305	-0.1080685
121	0xbe128545	-0.14308651
122	0x3e0e5a66	0.13901672
123	0x3d8fef0d	0.07028017
124	0xbcdfe196	-0.027329247
125	0xbd6e482c	-0.058174297
126	0xbdf516f2	-0.11967267
127	0x3dab55d6	0.08365981
128	0x3c208598	0.009797476
129	0xbcbc39c4	-0.022976764
130	0x3d9319a4	0.07182625
131	0xbd6e1a84	-0.058130756
132	0x3d275afa	0.040858246
133	0xbe22e210	-0.15906549
134	0xbd8d0592	-0.06885828
135	0x3e1e9f5f	0.15490483
136	0x3d20c9c7	0.03925493
137	0x3e1837aa	0.14864984
138	0xbe195565	-0.14973982
139	0xbde49abe	-0.11162327
140	0x3c16ef9b	0.0092124
141	0x3ddb5ea5	0.107114114
142	0x3be34b21	0.0069364463
143	0xbdd9d5ac	-0.10636458
144	0xbd404f69	-0.04695073
145	0x3db07b7b	0.08617302
146	0xbcff467d	-0.031161541
147	0x3b6ceb23	0.0036150895
148	0x3e0f845b	0.14015333
149	0xbe307107	-0.17230617
150	0x3dfbba35	0.122913755
151	0x3c04034a	0.008057425
152	0x3dda2277	0.10651105
153	0xbd9c414a	-0.076296404
154	0x3dd2c39e	0.10291217
155	0xbd69e396	-0.05710181
156	0xbdb8a10f	-0.090150945
157	0x3ce57a92	0.028012548
158	0x3cdd8bea	0.027044255
159	0x3c8bc706	0.017062675
160	0xbe0166a3	-0.12636809
161	0x3cb311b0	0.02185902
162	0x3d056eb0	0.032576263
163	0x3e09fcb8	0.13475311
164	0x3e0e7985	0.13913544
165	0x3d0f58ec	0.034996912
166	0x3d99538b	0.07486638
167	0x3d099e18	0.033598036
168	0xbd68b992	-0.0568176
169	0x3dcde4b0	0.10053384
170	0xbb6ca00a	-0.0036106133
171	0xbc448442	-0.011994423
172	0x3e3a18f5	0.18173583
173	0xbdc7bd6a	-0.09752925
174	0x3ded1aee	0.11577402
175	0x3dfa5a0f	0.122242086
176	0x3d8f450c	0.069955915
177	0x3e0f3da4	0.13988358
178	0xbd8db532	-0.06919326
179	0x3d4a4670	0.04938358
180	0x3c49ac30	0.012309119
181	0x3d646820	0.055763364
182	0x3d7c06f1	0.061530057
183	0xbcb901e5	-0.022583911
184	0x3ca24818	0.019809768
185	0xbc1f4790	-0.009721652
186	0xbd4c3cd4	-0.049862698
187	0x3d975fcc	0.07391319
188	0x3d66baa8	0.056330353
189	0xbdafa3c7	-0.0857616
190	0xbdac9687	-0.08427148
191	0x3e08244f	0.132951
192	0xbdd6cdf8	-0.10488504
193	0xbe178008	-0.14794934
194	0xbde7af86	-0.11312775
195	0xbde8a004	-0.113586456
196	0xbdb51313	-0.08841529
197	0xbd8c841a	-0.06861134
198	0x3ded8c9e	0.11599086
199	0xbcf03277	-0.029320939
200	0xbe1466d1	-0.14492346
201	0xbdd5558b	-0.10416707
202	0xbd30620b	-0.04306225
203	0xbd18e0a5	-0.037323613
204	0x3d85f642	0.065411106
205	0xbcf7a66f	-0.030230729
206	0x3ded4582	0.11585523
207	0xbd022f9f	-0.031783696
208	0xbdd62ea7	-0.10458117
209	0xbdc4a357	-0.09601467
210	0xbdbb1109	-0.091341086
211	0x3db858f1	0.09001339
212	0x3e1a8179	0.15088452
213	0xbd41d224	-0.047319546
214	0x3c3cc52e	0.011521621
215	0xbdfae521	-0.12250734
216	0xbce53207	-0.027977956
217	0xbbd6354a	-0.0065371143
218	0x3b8f610b	0.004375582
219	0x3d61714d	0.055039693
220	0x3da19741	0.078901775
221	0xbdbc2296	-0.09186284
222	0xbda7dee0	-0.08196807
223	0xbe1d0f87	-0.15337954
224	0xbde184d1	-0.11011661
225	0x3d61c536	0.055119716
226	0xbe20fbc3	-0.1572104
227	0xbd7e9bb0	-0.062160194
228	0xbc3aef79	-0.011409634
229	0xbe00f5a4	-0.12593704
230	0x3c414cc1	0.011798085
231	0xbe09892d	-0.13431235
232	0xbe1861d9	-0.14881076
233	0x3da20a52	0.07912125
234	0xbddda5ee	-0.10822664
235	0xbc6244a7	-0.013810313
236	0x3dd493d2	0.10379757
237	0x3dbbb960	0.09166217
238	0x3e2aabe3	0.16667132
239	0x3d1e9a41	0.038721327
240	0xbe2dc460	-0.16969442
241	0x3d733eb5	0.059385974
242	0xbbd91347	-0.0066246125
243	0xbdd26c4b	-0.102745615
244	0xbe12ee66	-0.14348754
245	0xbc600969	-0.013674119
246	0x3ddb8ee3	0.10720613
247	0xbcbe5690	-0.023234636
248	0xbdeb7232	-0.114963904
249	0x3dd323b7	0.103095464
250	0xbd2079d7	-0.039178696
251	0x3c8f7c69	0.017515378
252	0x3d78beb9	0.060728762
253	0x3cdea6b3	0.027179098
254	0xbddc1975	-0.10747043
255	0xbd774210	-0.060365736

bias_ih_l1 f4 [160]
0	0x3c375fb4	0.011192251
1	0x3dc46469	0.09589464
2	0x3d98f1ff	0.07468032
3	0xbd8c0a3c	-0.068378896
4	0xbd9112a1	-0.07083631
5	0xbd35600b	-0.044281047
6	0xbc324352	-0.010880308
7	0xbd8356b5	-0.064130224
8	0xbb8f40bc	-0.0043717306
9	0x3c07b356	0.008282503
10	0xbe1bf1e9	-0.15229
11	0x3dfa83dc	0.122321814
12	0x3dfb94b6	0.12284224
13	0x3e35abda	0.17741337
14	0x3e2a7c04	0.1664887
15	0x38a1e5ee	7.719906e-05
16	0xbdb76976	-0.08955662
17	0xbdea4dc5	-0.114406146
18	0x3e3d1ef4	0.18468839
19	0xbdd0bd12	-0.10192312
20	0x3ad4926f	0.0016217957
21	0xbdb648af	-0.08900582
22	0x3c87d71f	0.01658207
23	0x3c18e09a	0.009330893
24	0x3df931bd	0.1216769
25	0x3e13cd55	0.14433797
26	0x3e0614da	0.13093892
27	0x3e0f25a3	0.13979201
28	0x3dc0347b	0.0938501
29	0xbdd28cf0	-0.10280788
30	0x3e343248	0.17597306
31	0xbdfbe822	-0.12300135
32	0x3dd3f40c	0.103492826
33	0xbd08f8c4	-0.033440366
34	0xbd56d67d	-0.052450646
35	0x3cdc6549	0.026903765
36	0x3e077fbf	0.13232325
37	0x3e048628	0.12941802
38	0x3e18fa3d	0.14939208
39	0x3ccfc559	0.025362657
40	0xbe1de991	-0.1542113
41	0x3e2699e3	0.1626964
42	0xbd8c2ff8	-0.06845087
43	0xbde66cc1	-0.11251212
44	0x3befa482	0.007313312
45	0x3e0125a8	0.12612021
46	0xbcaa68c4	-0.02080191
47	0x3c329dba	0.010901863
48	0x3cc3c444	0.023897298
49	0x3da1339e	0.07871173
50	0xbe2b1be3	-0.16709857
51	0xbbe985a3	-0.0071265264
52	0x3df55fdc	0.11981174
53	0xbe088ecf	-0.13335727
54	0xbdb93b97	-0.09044569
55	0xbda56c0d	-0.0807725
56	0x3dd830c1	0.10556174
57	0x3e1a0444	0.1504069
58	0x3dd99a06	0.10625081
59	0x3c5a2642	0.013314785
60	0xbd2af0b9	-0.041733477
61	0x3d6fd4d4	0.058552578
62	0xbdd22a17	-0.10261934
63	0xbdae7078	-0.085175455
64	0x3d80fc00	0.06298065
65	0xbc853121	-0.016258778
66	0xbe226c76	-0.15861687
67	0x3caf0061	0.021362485
68	0xbc263168	-0.010143615
69	0x3d624cbf	0.055248972
70	0xbc29b95a	-0.010359133
71	0x3d413f04	0.047179237
72	0xbb16a408	-0.0022985954
73	0x3d80d60e	0.06290828
74	0x3debad2d	0.1150764
75	0xbdfe5553	-0.12418618
76	0x3e077395	0.13227685
77	0x3dcace33	0.09902611
78	0xbdfd39d4	-0.123645455
79	0x3e217e41	0.15770818
80	0xbd17f6c6	-0.037100576
81	0x3d9e5836	0.07731669
82	0xbd3e14bc	-0.046406493
83	0xbcacaa56	-0.021077316
84	0xbdb42b94	-0.08797374
85	0x3e099a65	0.13437803
86	0x3df82f9e	0.12118457
87	0xbdf9ebf4	-0.122032076
88	0xbe38d91f	-0.18051575
89	0xbda2221d	-0.07916663
90	0xbe18abcf	-0.1490929
91	0x3d39335c	0.045214996
92	0x3d44df1e	0.048064344
93	0xbb71bf14	-0.0036887573
94	0xbdb624f6	-0.088937685
95	0x3e050422	0.12989858
96	0x3e11eb2a	0.14249864
97	0xbd0cfea5	-0.034422535
98	0x3e134277	0.14380823
99	0x3dade154	0.084902436
100	0xbbb5573d	-0.0055340813
101	0xbce45aa1	-0.027875246
102	0x3bb038c6	0.0053778617
103	0xbd41a158	-0.04727301
104	0x3e065364	0.13117748
105	0xbcd146d9	-0.025546478
106	0x3d34fbc5	0.04418542
107	0x3dd137cc	0.102157205
108	0xbd1f7c7b	-0.038937073
109	0x3a3fafea	0.0007312285
110	0x3e25cb26	0.16190776
111	0x3d42d204	0.047563568
112	0x3e1d862b	0.15383212
113	0x3ca71ea7	0.020400358
114	0xbdf19103	-0.11795237
115	0xbdb746e1	-0.08949066
116	0x3e0b4bca	0.1360313
117	0x3dd135b2	0.1021532
118	0x3cfbb1c9	0.030724423
119	0x3d2c2908	0.042031318
120	0xbe1bfea2	-0.15233853
121	0x3dd29a1a	0.10283299
122	0xbde2d010	-0.11074841
123	0xbd06eedc	-0.032942638
124	0x3b6ee0f2	0.0036449996
125	0xbe0dd45f	-0.13850544
126	0x3cb303ae	0.02185234
127	0x3e0a9959	0.1353506
128	0xbddc3c3c	-0.10753676
129	0x3e22c3c1	0.15894987
130	0xbe2e7175	-0.17035468
131	0x3d356d6f	0.044293817
132	0xbcf7ba74	-0.030240275
133	0x3da3281b	0.07966634
134	0x3e10d34d	0.14143105
135	0x3cf807ed	0.030277217
136	0xbc1637da	-0.0091685895
137	0xbdaeaa4f	-0.085285775
138	0x3e2ebb66	0.17063674
139	0x3dec0be3	0.11525705
140	0x3d3dd323	0.046343934
141	0xbd8684b6	-0.06568281
142	0x3cbc7018	0.02300267
143	0x3d6cf4dc	0.057850704
144	0x3e48da73	0.19614582
145	0x3e20807d	0.15674014
146	0x3ddf21c8	0.10895115
147	0xbddb2d63	-0.10702016
148	0x3db29983	0.08720686
149	0xbdc044b3	-0.09388103
150	0xbda6b9c2	-0.08140899
151	0x3e32b550	0.17451978
152	0x3e34b5b7	0.17647444
153	0xbd0ccb30	-0.034373462
154	0x3d754c30	0.05988711
155	0x3e3ccedf	0.1843829
156	0xbd321dc7	-0.04348543
157	0xbc538e42	-0.012912335
158	0xbcd1a836	-0.025592905
159	0x3db527c2	0.08845474

bias_hh_l1 f4 [160]
0	0x3e1243ba	0.14283648
1	0xbdebf1d0	-0.115207314
2	0x3df6e3ea	0.1205519
3	0x3d109073	0.035294008
4	0x3dc65881	0.096848495
5	0xbc6ed94c	-0.014578175
6	0x3d93b53a	0.072123006
7	0xbd951060	-0.07278514
8	0xbe0c4acc	-0.13700408
9	0xbdda9e94	-0.106747776
10	0x3c9bd2ca	0.01902141
11	0x3e347115	0.17621262
12	0x3d2e283d	0.042518843
13	0xbd100b26	-0.035166882
14	0x3dcda513	0.10041251
15	0xbc518dad	-0.012790126
16	0xbd824ed2	-0.0636269
17	0x3d57829a	0.052614786
18	0x3e3c9682	0.18416789
19	0x3d992419	0.07477588
20	0x3d71cb9a	0.05903206
21	0x3e016c8b	0.12639062
22	0x3dc32412	0.09528364
23	0x3cb9ce3f	0.022681354
24	0x3dc546b3	0.096326254
25	0xbd506fc9	-0.050887857
26	0xbd7a5bb5	-0.061122615
27	0xbdfe7798	-0.124251544
28	0x3e341793	0.17587118
29	0x3e169b01	0.14707567
30	0x3df8c8bb	0.12147661
31	0x3e2ab5a9	0.1667086
32	0xbd09f1ac	-0.033677742
33	0x3e366ccf	0.17814945
34	0x3d31a705	0.043372173
35	0x3daecfbd	0.08535717
36	0x3ca60269	0.020264821
37	0xbd81cf4c	-0.06338367
38	0xbd0533b3	-0.032520007
39	0xbdc56b2f	-0.09639584
40	0xbc6661af	-0.0140613755
41	0x3e1fc463	0.1560226
42	0x3e1ed1c1	0.15509702
43	0xba821efc	-0.0009927447
44	0x3c9db3c2	0.019250754
45	0xbda900fb	-0.0825214
46	0xbd8b2f00	-0.06796074
47	0x3e16481e	0.14675948
48	0xbdfbde43	-0.122982524
49	0xbcd8244e	-0.026384499
50	0xbdfd207e	-0.12359713
51	0x3dcdadfe	0.10042952
52	0xbc9fc33d	-0.019502277
53	0xbde25e7c	-0.11053178
54	0xbcfdd27e	-0.03098416
55	0xbd0402a2	-0.032229073
56	0xbdec1fed	-0.11529527
57	0xbc930332	-0.01794586
58	0xbcbb85bf	-0.022890924
59	0x3bec0977	0.0072032767
60	0xbe0aa34c	-0.13538855
61	0xbd9b44fb	-0.07581516
62	0x3df6f14a	0.12057741
63	0x3dd79186	0.10525803
64	0xbdef5257	-0.11685627
65	0xbdcee303	-0.10101893
66	0x3dfca0b3	0.123353384
67	0x3d7e1d55	0.062039692
68	0x3e229ee0	0.15880919
69	0x3dc66d88	0.0968886
70	0xbded1d4c	-0.115778536
71	0x3d809ca0	0.06279874
72	0xbd931dc7	-0.07183414
73	0xbc991761	-0.018687906
74	0x3dc4ed86	0.096156165
75	0xbd00cc3f	-0.031444784
76	0x3e199d29	0.15001358
77	0x3dcb53f1	0.0992812
78	0x3cb95cd2	0.022627268
79	0x3e1d58ed	0.15365954
80	0x3cf83991	0.030300887
81	0xbd92faf5	-0.071767725
82	0xbd792d7a	-0.060834385
83	0xbdc0d6d1	-0.09415973
84	0xbe1f71cb	-0.15570752
85	0xbdb1a8a1	-0.086747415
86	0x3c1674f9	0.009183162
87	0x3e151639	0.14559259
88	0x3c9a3c99	0.018827723
89	0xbd2e67fc	-0.042579636
90	0x3db96e37	0.09054225
91	0x3c421b92	0.011847394
92	0xbd06644e	-0.0328105
93	0xbe11bf43	-0.14233117
94	0x3e1a5f0d	0.15075321
95	0xbc94535f	-0.01810616
96	0xbdd33d91	-0.10314477
97	0x3e01df2c	0.1268279
98	0xbdba1519	-0.09086055
99	0x3da9eaa8	0.0829671
100	0xbd4b28d4	-0.049599484
101	0xbda2d19f	-0.07950138
102	0x3e126604	0.14296728
103	0x3e0e6903	0.13907246
104	0x3d686fd9	0.05674729
105	0xbdcc48eb	-0.099748455
106	0x3dab1f28	0.08355552
107	0x3d68c5e2	0.05682934
108	0xbbae525f	-0.005319878
109	0x3d565c9b	0.05233441
110	0x3d03dde6	0.03219404
111	0x3d9e0784	0.07716277
112	0xbcecb9d8	-0.028897211
113	0xbe2041a7	-0.15650044
114	0x3dd6d0d8	0.104890525
115	0x3bdd09af	0.006745539
116	0x3c892f5c	0.016746216
117	0xbd7de586	-0.06198647
118	0x3d8b167a	0.067913964
119	0xbd5e56a9	-0.054281864
120	0x3c3ec4c2	0.01164359
121	0x3df7545a	0.12076636
122	0xbda1afb2	-0.07894839
123	0xbdea0a53	-0.114277504
124	0xbdf0a6f5	-0.117505945
125	0xbd78be8a	-0.060728587
126	0x3dfd5e2e	0.12371479
127	0x3e379aa9	0.17930092
128	0x3d304949	0.04303864
129	0x3dd2338d	0.10263739
130	0xbd56b904	-0.05242254
131	0x3daa4147	0.08313232
132	0xbdce2d07	-0.10067182
133	0x3e193ab6	0.14963803
134	0x3c79cedf	0.015247076
135	0x3d973ffc	0.07385251
136	0x3e0d694e	0.13809702
137	0x3d87f7c0	0.066390514
138	0xbd2706ca	-0.04077796
139	0x3dd31eb0	0.103085876
140	0xbbf5cc6e	-0.0075011766
141	0x3d579683	0.052633774
142	0x3db4689b	0.088090144
143	0x3d5c17cd	0.053733636
144	0x3d6016a6	0.0547091
145	0xbda03164	-0.078219205
146	0x3da7c41a	0.081917
147	0xbd947f6a	-0.07250865
148	0x3e3685d7	0.17824493
149	0xbc3854b7	-0.011250666
150	0x3acbb74a	0.0015542295
151	0x3e2d019d	0.16895147
152	0x3d78c3d7	0.060733642
153	0x3e2fe727	0.17178021
154	0x3da41ae7	0.08012944
155	0xbd9588d6	-0.0730149
156	0x3dc0d97f	0.09416484
157	0xbd54e156	-0.05197271
158	0xbd5d23a0	-0.053989053
159	0xbdb05e50	-0.08611739
