examples/src/main/resources/deepar.pt (torch, 806789 bytes, 15 tensors)

weight f4 [1, 40]
0.09892666 -0.08311056 0.15359336 -0.07108009 -0.052563787 -0.19441877 -0.055199023 0.039894648
0.1671508 0.13653496 -0.18231371 -0.16836374 -0.08655301 0.08423932 -0.0072377436 0.0032937478
-0.087170176 0.03097963 0.020422576 0.17191352 0.18628721 -0.013837334 0.14224754 -0.0485957
0.06670611 -0.12525496 0.15655941 0.09444262 0.053259887 -0.052079078 0.12507021 -0.109772235
-0.12633389 0.0558244 0.0026255539 0.041968267 0.063455224 -0.14166245 -0.024781786 -0.021048427
00000000: 109a ca3d df35 aabd 9447 1d3e 7092 91bd
00000010: 204d 57bd b715 47be 5f18 62bd 9268 233d
00000020: 9429 2b3e d2cf 0b3e 72b0 3abe 8b67 2cbe
00000030: b442 b1bd aa85 ac3d 982a edbb ebdb 573b
00000040: 4786 b2bd fec8 fd3c 3f4d a73c 190a 303e
00000050: 13c2 3e3e fcb5 62bc 57a9 113e 490c 47bd
00000060: 379d 883d d642 00be 1c51 203e 226b c13d
00000070: 0a27 5a3d df50 55bd 6812 003e 44d0 e0bd
00000080: ac5d 01be 20a8 643d 7c11 2c3b ebe6 2b3d
00000090: d0f4 813d f60f 11be 2c03 cbbc c06d acbc

weight f4 [1, 40]
-0.121552736 0.12715906 0.12780239 -0.08643169 -0.0361507 -0.17918205 -0.011031405 0.055256672
-0.12432018 -0.099234 0.075290516 0.082314335 -0.051973622 0.086045146 0.08980596 0.10295311
-0.10367358 -0.03332295 0.0900956 0.1604558 0.04486521 0.06303842 0.04278927 -0.13464737
-0.1372052 0.04922918 0.077461384 0.033727214 -0.13691469 0.15513816 0.05724485 0.008852579
0.055929687 -0.14716037 -0.06900162 0.10776583 0.14388525 0.013667458 0.17706266 0.08823511
00000000: a4f0 f8bd fc35 023e a1de 023e 1903 b1bd
00000010: c212 14bd 807b 37be 11bd 34bc d254 623d
00000020: 949b febd 323b cbbd ea31 9a3d 6b94 a83d
00000030: 4be2 54bd 7038 b03d 30ec b73d 15d9 d23d
00000040: d052 d4bd a57d 08bd 0b84 b83d 864e 243e
00000050: 95c4 373d 4a1a 813d cd43 2f3d 00e1 09be
00000060: 857f 0cbe 89a4 493d 13a4 9e3d 8c25 0a3d
00000070: 5d33 0cbe 8adc 1e3e 9379 6a3d 680a 113c
00000080: 8716 653d 35b1 16be b950 8dbd 55b4 dc3d
00000090: a856 133e 79ed 5f3c ea4f 353e 9cb4 b43d

weight f4 [3049, 50]
-1.1446615 -0.5133545 1.3634688 -0.37116015 -0.7065947 1.1718595 -0.7580529 2.1135745
-0.4144007 -1.1833018 -1.3157922 0.13132127 -0.86876166 0.9435424 -0.69192684 1.0447384
-1.063129 -1.0812922 0.45371708 -0.0003389001 -0.5689477 0.99135095 -0.9345253 1.0156766
-0.9841405 -1.2217392 0.2782838 -1.0715364 -0.9103619 -1.0483432 0.7671531 0.33991033
-0.4160584 0.5838727 -1.950219 -0.59730494 -1.39337 -0.61790097 0.66554624 -0.55517626
-0.6511255 1.671147 -0.14778766 1.9500126 -1.25795 -0.6946857 -0.58911926 -2.173302
1.0073084 -0.8866826 -1.1963795 0.45369887 0.51712126 0.040913265 -1.4138169 0.8723158
-0.24396697 -0.15035902 -1.0061814 1.113812 1.476399 -0.5511163 -1.0472343 -0.36058682
-0.8803562 0.5650046 -0.99754477 -1.6904042 -0.8052783 0.56710666 0.48901853 -0.58262354
1.6193949 0.12532671 -0.074197 -0.09615208 0.13641676 -0.4223279 0.91107947 -2.0283453
-0.4920624 0.2299632 0.524185 1.0132107 -0.70777637 -0.43519416 -0.7633779 -0.47549427
-1.1319512 -0.7850724 0.6536779 -0.46896788 -0.15557955 0.20109923 -0.9272451 -0.53392327
-0.45735472 -0.7480823 0.2980943 -0.9445456 0.39861196 0.11431881 -0.9492833 0.21806808
0.104669414 -0.15261585 -0.54259634 -1.3843799 -1.3878679 -2.612274 0.92819166 0.9671311
-1.4150954 -0.084857605 0.3779102 0.16164841 0.48671132 -0.8160309 -0.89788216 -1.0080534
-1.2690212 0.5271173 -0.4178292 0.6262918 1.1927541 1.0970078 -1.40315 -1.6994265
1.4577161 -0.11940896 -1.5317414 1.7428048 -1.4368289 -0.035126552 0.5004486 -1.4576063
-1.4000521 -0.17426118 -0.5500093 -1.008775 1.6762426 0.4781647 0.3625143 1.0807366
0.7700679 -0.96623087 -0.7625353 1.5432053 2.3629436 -0.5207435 0.71884316 0.2853063
-0.17876597 -1.6969624 0.22679292 -0.5675736 -0.19815542 0.585671 0.27500245 -0.5290993
1.2900114 -0.38937056 0.16782364 0.5978526 -1.3330424 -0.8824856 -0.117516235 0.84175813
0.528488 -0.1497367 0.6548926 -1.6611658 -0.18465133 -0.06590789 -0.6132261 1.6426605
-0.95558345 0.5889889 0.42663273 0.045703102 2.4124496 0.5651281 -0.8321999 0.7402102
0.028092694 -0.8560395 0.06480453 -1.0359933 -0.66579336 0.91323733 0.8768345 1.3768493
0.73906565 -0.08065049 0.2710619 0.30350202 1.0299441 -0.6653616 -1.0544484 0.2449524
1.0222504 0.42512372 -0.8210426 0.7205817 -0.5805062 -0.42228353 0.75179416 2.2390883
1.0910934 0.10306572 -0.5823563 0.93166244 0.16806173 0.8776002 -0.0013048555 0.3165982
-0.2090301 -0.8595384 0.94101405 -1.39691 1.3976558 1.1407797 -0.9016864 0.5093923
-1.2034258 0.30924386 0.4053041 -1.617756 1.6365726 1.3457948 -0.39107618 1.4139782
-0.75923145 -0.04898602 -1.2202616 0.7784153 -0.04433526 0.11242676 0.7550591 0.20253833
0.8757473 0.28170446 0.20254211 -0.9596998 -0.09314135 0.40432933 -0.4328983 -1.3073349
1.2441113 0.13128117 0.23050158 0.19844472 0.02799552 -1.5081801 1.4338676 -0.40820563
00000000: 4584 92bf 336b 03bf 2586 ae3f b408 bebe
00000010: 64e3 34bf 7eff 953f c10f 42bf ce44 0740
00000020: 542c d4be 6f76 97bf e16b a8bf 1579 063e
00000030: 2a67 5ebf ff8b 713f 1e22 31bf fdb9 853f
00000040: 9c14 88bf c867 8abf 9b4d e83e 67ae b1b9
00000050: 8ea6 11bf 2dc9 7d3f 0d3d 6fbf b101 823f
00000060: a2f0 7bbf f361 9cbf 377b 8e3e 1b28 89bf
00000070: 7a0d 69bf 1c30 86bf 2564 443f ba08 ae3e
00000080: 9b05 d5be ae78 153f c7a0 f9bf fae8 18bf
00000090: f359 b2bf c22e 1ebf 3d61 2a3f 0820 0ebf
000000a0: 29b0 26bf 25e8 d53f a655 17be 039a f93f
000000b0: 8104 a1bf ecd6 31bf 85d0 16bf 6117 0bc0
000000c0: 7bef 803f a2fd 62bf f722 99bf 384b e83e
000000d0: 0f62 043f ab94 273d f4f7 b4bf 1750 5f3f
000000e0: 7ad2 79be b7f7 19be 8dca 80bf 6491 8e3f
000000f0: a4fa bc3f f515 0dbf c60b 86bf d69e b8be
00000100: 065f 61bf 24a4 103f 185f 7fbf 2a5f d8bf
00000110: b826 4ebf e72d 113f a360 fa3e d126 15bf
00000120: 5548 cf3f a555 003e 99f4 97bd 62eb c4bd
00000130: d6b0 0b3e 5d3b d8be 813c 693f 69d0 01c0
00000140: 9aef fbbe 797b 6b3e fd30 063f e3b0 813f
00000150: d530 35bf c5d1 debe bc6c 43bf fc73 f3be
00000160: c7e3 90bf 81fa 48bf 6f57 273f 8f1c f0be
00000170: 3f50 1fbe f5ec 4d3e ef5f 6dbf 32af 08bf
00000180: 662a eabe 5282 3fbf d19f 983e becd 71bf
00000190: de16 cc3e fb1f ea3d 3b04 73bf 3d4d 5f3e
000001a0: eb5c d63d 5447 1cbe 98e7 0abf 5c33 b1bf
000001b0: a8a5 b1bf 7f2f 27c0 f89d 6d3f e795 773f
000001c0: d921 b5bf d3c9 adbd 727d c13e 2987 253e
000001d0: 3a32 f93e 67e7 50bf 9bdb 65bf e507 81bf
000001e0: 496f a2bf 29f1 063f b5ed d5be a954 203f
000001f0: 2bac 983f c06a 8c3f 6b9a b3bf cf86 d9bf
00000200: 7196 ba3f af8c f4bd 1a10 c4bf 3a14 df3f
00000210: 02ea b7bf dce0 0fbd 661d 003f d892 babf
00000220: e834 b3bf 8671 32be 69cd 0cbf 8a1f 81bf
00000230: 1e8f d63f 01d2 f43e 799b b93e 9455 8a3f
00000240: 2b23 453f e85a 77bf 8335 43bf c087 c53f
00000250: 783a 1740 724f 05bf 1b06 383f ab13 923e
00000260: 6d0e 37be 1036 d9bf 673c 683e 814c 11bf
00000270: 41e9 4abe 89ee 153f 1fcd 8c3e 0d73 07bf
00000280: 181f a53f 945b c7be f6d9 2b3e de0c 193f
00000290: 22a1 aabf 94ea 61bf 5aac f0bd 767d 573f
000002a0: fd4a 073f 9454 19be 0ba7 273f 15a1 d4bf
000002b0: 3d15 3dbe b7fa 86bd 63fc 1cbf b342 d23f
000002c0: 1ea1 74bf fac7 163f 9b6f da3e 2d33 3b3d
000002d0: 9365 1a40 3cac 103f 0d0b 55bf 6a7e 3d3f
000002e0: a622 e63c 6825 5bbf 3db8 843d 6e9b 84bf
000002f0: 6f71 2abf ecc9 693f 3a78 603f 993c b03f
00000300: 6833 3d3f 162c a5bd a0c8 8a3e 9e64 9b3e
00000310: 35d5 833f 2355 2abf 2af8 86bf cdd4 7a3e
00000320: 1ad9 823f d1a9 d93e d92f 52bf 0b78 383f
00000330: 0e9c 14bf 8c35 d8be 9575 403f 394d 0f40
00000340: f3a8 8b3f 1f14 d33d 4d15 15bf 6e81 6e3f
00000350: 6018 2c3e 68aa 603f af07 abba 2919 a23e
00000360: fd0b 56be b50a 5cbf 4ce6 703f f2cd b2bf
00000370: 63e6 b23f 1205 923f ebd4 66bf 8967 023f
00000380: db09 9abf 3655 9e3e 0584 cf3e a112 cfbf
00000390: 367b d13f 0143 ac3f 233b c8be 3dfd b43f
000003a0: fe5c 42bf 91a5 48bd 8831 9cbf 3a46 473f
000003b0: e498 35bd 0040 e63d 8e4b 413f 3566 4f3e
000003c0: fa30 603f 913b 903e 3367 4f3e e3ae 75bf
000003d0: e4c0 bebd 4104 cf3e d9a4 ddbe c056 a7bf
000003e0: 0a3f 9f3f 926e 063e 9b08 6c3e 1835 4b3e
000003f0: dc56 e53c 0c0c c1bf f988 b73f 5400 d1be

weight f4 [7, 4]
-1.4704473 1.3299838 1.3421026 0.8997315 -0.4573887 -0.5578371 -0.19597386 0.26803
2.0965242 0.88082075 1.09378 0.4323701 1.2825632 -1.9395257 0.5943999 -0.6595869
0.030323846 -1.8628345 -1.5521251 -0.13971035 -0.27270776 -0.09790191 0.51021326 -2.1286032
-1.2347369 0.18959689 0.18311846 1.5114564
00000000: 9e37 bcbf e93c aa3f 05ca ab3f ce54 663f
00000010: da2e eabe 6ace 0ebf 5fad 48be 3a3b 893e
00000020: 742d 0640 787d 613f fc00 8c3f 9d5f dd3e
00000030: 082b a43f 6142 f8bf 982a 183f b0da 28bf
00000040: b769 f83c 5c71 eebf 09ac c6bf 3b10 0fbe
00000050: 5aa0 8bbe cc80 c8bd 569d 023f 093b 08c0
00000060: dc0b 9ebf b025 423e 6883 3b3e 6777 c13f

weight f4 [3, 2]
-0.07646762 -0.8259937 -1.1091454 -0.84575033 -0.5001709 -0.7197478
00000000: 0e9b 9cbd 5374 53bf 7af8 8dbf 1883 58bf
00000010: 330b 00bf 6441 38bf

weight f4 [10, 5]
1.3344595 -0.01599179 -0.8135041 0.5597104 -1.5482086 -0.90827495 0.15008917 0.003223957
-0.11627957 -0.009869681 -1.3049033 -0.4830436 -0.3761955 -1.0807923 1.7016729 -2.4950218
-1.0681375 0.5714793 0.32504675 -1.2649622 0.19800472 -0.7778886 1.1053306 0.29311258
-0.07911635 1.1319854 1.3111609 0.6006371 1.7324257 2.077574 2.8148913 -0.42029083
0.881757 2.1577163 -0.85308456 0.40707135 -1.2698185 -0.59793377 -0.22105877 -1.3652146
0.28991413 -0.75484765 0.16078228 1.6766415 -0.3847598 1.0651329 -0.4913411 -0.020991923
1.032392 0.7483829
00000000: 92cf aa3f 3701 83bc ce41 50bf 2e49 0f3f
00000010: b32b c6bf b584 68bf fab0 193e 0649 533b
00000020: fc23 eebd 71b4 21bc 1207 a7bf 7e51 f7be
00000030: b29c c0be 6757 8abf 6bd0 d93f 70ae 1fc0
00000040: bbb8 88bf 784c 123f 876c a63e 48ea a1bf
00000050: c0c1 4a3e b523 47bf 797b 8d3f da12 963e
00000060: c107 a2bd e6e4 903f 1fd4 a73f 5ac3 193f
00000070: 20c0 dd3f f9f6 0440 2e27 3440 5c30 d7be
00000080: d4ba 613f 0618 0a40 c063 5abf a86b d03e
00000090: 6a89 a2bf 3012 19bf 3b5d 62be 5abf aebf
000000a0: a06f 943e b23d 41bf 1ca4 243e 309c d63f
000000b0: 3dff c4be 4656 883f 1091 fbbe 41f7 abbc
000000c0: 6c25 843f 0696 3f3f

weight f4 [3, 2]
1.2024839 -0.18086368 0.011413189 -1.5147209 -0.37036404 0.06661827
00000000: feea 993f 5434 39be 62fe 3a3c 60e2 c1bf
00000010: 5ba0 bdbe 296f 883d

weight_ih_l0 f4 [160, 99]
0.13775899 -0.030641485 0.057908505 -0.026633885 -0.12751085 -0.09195398 0.07754401 -0.01632586
-0.076812856 -0.046339218 0.057895057 0.06516128 -0.107199594 -0.117545106 0.02427993 0.08117311
0.061104942 0.0049228757 0.060611036 0.05514397 0.14416891 -0.07268596 0.05495208 0.026424378
0.040070172 -0.085601024 0.017823242 -0.13321055 -0.1284524 0.025589643 -0.02684653 -0.025806049
0.061521005 -0.0432965 -0.13155708 0.06513243 0.0030579537 0.13974938 0.1557288 -0.043392304
0.070040874 0.058215212 0.031429347 -0.049317047 -0.053601168 -0.15007247 -0.07267009 -0.0353017
-0.024271822 0.08822374 -0.12127951 -0.082807206 -0.13561426 -0.09519635 0.00043350444 0.12729879
-0.078513525 0.069485724 0.15933238 -0.013621875 0.09722341 -0.08544588 -0.11577283 -0.006823715
-0.13874213 0.009705362 0.032011867 -0.12382458 -0.019364145 -0.16600354 0.10302441 0.103523046
0.117556654 0.10340781 -0.10834476 -0.023012714 0.09176942 -0.052105803 -0.10651387 -0.031909566
-0.05159529 0.016079145 -0.027662527 0.037293546 -0.1068079 0.05900203 0.1409589 0.0829635
0.04742599 0.10762457 0.1404787 0.02023049 0.05718246 -0.101236895 0.09146209 0.088724315
0.109795436 0.13917491 0.038697764 -0.014565956 0.033421803 0.009130624 -0.04999039 -0.10250459
-0.081396416 0.049350977 0.033839017 -0.13121328 0.08796391 0.09644313 0.0018779938 0.010273303
0.014423224 0.13103528 0.08285392 0.12969185 -0.1316271 -0.025707535 -0.08627212 -0.012252066
0.024454117 0.012110346 0.029038744 0.00071348133 -0.08804759 0.014263696 0.14662606 0.14834672
-0.06709993 0.13853239 0.036408957 -0.16068436 -0.14396307 0.03383383 -0.15260926 -0.07334498
0.064149305 0.102059394 -0.07848244 0.10317077 0.0329666 0.080567904 0.102329604 -0.14208414
0.09033608 -0.030333132 0.11159364 0.12268672 -0.05952612 -0.0072565055 -0.1367917 0.13562022
0.11487269 0.073195666 0.1323163 0.1334379 0.07068905 -0.012083783 -0.12326871 -0.024788456
-0.06566812 -0.121952325 -0.09183063 -0.04914171 -0.120197766 -0.1194807 -0.057327278 0.108428955
-0.14592053 -0.04816066 -0.10993621 -0.12832695 0.04840211 -0.043854628 -0.112647265 -0.1572109
-0.1405578 0.11282116 0.008155744 0.02189772 0.051858954 0.0420343 0.07673994 -0.10729526
0.089020565 0.11855486 0.04122452 -0.010427622 -0.119439915 0.13108675 0.16775487 0.08955626
0.15073013 -0.07788932 -0.10473304 -0.12361413 0.03749557 -0.09072352 -0.028405912 0.14025162
-0.11739253 0.07736985 -0.04608565 -0.046192594 0.014840441 -0.09378422 0.13831893 0.11439935
0.09862526 0.15728208 0.15401688 -0.019943893 0.027606621 0.076812044 0.13027304 -0.12797819
0.13106418 0.04047737 -0.059579827 0.07935698 0.059214044 0.024251888 -0.041490167 -0.14743388
-0.1382728 0.0042472263 -0.05550049 0.019820105 -0.14890248 -0.13587734 0.07964484 0.03383722
-0.11389288 0.05098492 0.025130754 0.13146757 0.12889682 0.086441614 0.06378224 0.0448099
0.10963759 0.0089685675 -0.0681083 -0.11457382 -0.01388031 -0.032188848 -0.049933225 0.05069861
0.02700034 -0.10075658 0.1564059 0.091826744 0.042105757 -0.0034251073 -0.11988829 -0.06327612
00000000: b110 0d3e da03 fbbc 7831 6d3d 4e2f dabc
00000010: 3492 02be 5e52 bcbd 65cf 9e3d cfbd 85bc
00000020: 0f50 9dbd 31ce 3dbd 5e23 6d3d 4773 853d
00000030: 768b dbbd 7dbb f0bd b4e6 c63c 163e a63d
00000040: 2d49 7a3d 1350 a13b 4743 783d a5de 613d
00000050: 04a1 133e 60dc 94bd 6f15 613d f077 d83c
00000060: 9f20 243d 974f afbd 0c02 923c 5968 08be
00000070: 0789 03be 5fa1 d13c 41ed dbbc 3567 d3bc
00000080: 73fd 7b3d ac57 31bd e6b6 06be 2764 853d
00000090: f367 483b 761a 0f3e 5f77 1f3e 21bc 31bd
000000a0: 9771 8f3d 1373 6e3d 0fbc 003d ac00 4abd
000000b0: e68c 5bbd 99ac 19be 0ed4 94bd 8498 10bd
000000c0: b3d5 c6bc a6ae b43d 6461 f8bd d396 a9bd
000000d0: 77de 0abe 4ef6 c2bd fb47 e339 9d5a 023e
000000e0: b3cb a0bd 884e 8e3d 0728 233e 492e 5fbc
000000f0: 111d c73d 40fe aebd 4e1a edbd 7899 dfbb
00000100: 6b12 0ebe 3d03 1f3c e01e 033d be97 fdbd
00000110: 8ea1 9ebc d5fc 29be 76fe d23d e403 d43d
00000120: 8bc1 f03d 79c7 d33d dce3 ddbd 2985 bcbc
00000130: 9bf1 bb3d e56c 55bd f223 dabd 9bb3 02bd
00000140: 9555 53bd 69b8 833c 869c e2bc 1ec1 183d
00000150: 1abe dabd 1dac 713d 8857 103e c4e8 a93d
00000160: c141 423d 456a dc3d a6d9 0f3e 6aba a53c
00000170: 2838 6a3d 4a55 cfbd 7a50 bb3d 18b5 b53d
00000180: 6edc e03d de83 0e3e 8c81 1e3d 0ca6 6ebc
00000190: 4de5 083d 9d98 153c b9c2 4cbd eded d1bd
000001a0: 2ab3 a6bd 4024 4a3d c89a 0a3d c65c 06be
000001b0: 6c26 b43d fa83 c53d 0427 f63a 5b51 283c
000001c0: 634f 6c3c 1d2e 063e 51af a93d f1cd 043e
000001d0: 41c9 06be 9c98 d2bc 70af b0bd e4bc 48bc
000001e0: 0054 c83c 796a 463c a9e2 ed3c ec08 3b3a
000001f0: 4b52 b4bd 47b2 693c 2425 163e 34e8 173e
00000200: b06b 89bd 6fdb 0d3e 8f21 153d 718a 24be
00000210: 0e6b 13be 5895 0a3d 9a45 1cbe e535 96bd
00000220: b660 833d 8404 d13d 67bb a0bd 324b d33d
00000230: fc07 073d c900 a53d 2f92 d13d 817e 11be
00000240: 1f02 b93d 307d f8bc 358b e43d 2d43 fb3d
00000250: a9d1 73bd fbc7 edbb 2013 0cbe 07e0 0a3e
00000260: 5f42 eb3d 9ce7 953d ed7d 073e f2a3 083e
00000270: 6cc5 903d 0ffb 45bc 4e74 fcbd 2911 cbbc
00000280: 027d 86bd 24c2 f9bd b311 bcbd d148 49bd
00000290: 3f2a f6bd 4cb2 f4bd 02d0 6abd 0010 de3d
000002a0: 316c 15be 1d44 45bd 3c26 e1bd 2468 03be
000002b0: 4a41 463d e9a0 33bd 9cb3 e6bd e5fb 20be
000002c0: 62ee 0fbe c80e e73d ab9f 053c d962 b33c
000002d0: 0e6a 543d 282c 2c3d d429 9d3d 9ebd dbbd
000002e0: 6a50 b63d e4cc f23d 0bdb 283d 9ed8 2abc
000002f0: ea9c f4bd 9b3b 063e efc7 2b3e 4669 b73d
00000300: 0059 1a3e 7084 9fbd 477e d6bd 6829 fdbd
00000310: f494 193d 41cd b9bd 84b3 e8bc 1f9e 0f3e
00000320: 7f6b f0bd 1574 9e3d 4ec4 3cbd 7234 3dbd
00000330: 5225 733c f111 c0bd 7aa3 0d3e 354a ea3d
00000340: 0afc c93d 8e0e 213e 9ab6 1d3e 6061 a3bc
00000350: 4827 e23c a24f 9d3d 4c66 053e b70c 03be
00000360: b035 063e 99cb 253d fa09 74bd ea85 a23d
00000370: 6d8a 723d e5ab c63c 98f1 29bd e8f8 16be
00000380: 6397 0dbe 512c 8b3b 7b54 63bd c65d a23c
00000390: e479 18be 6e23 0bbe d51c a33d e698 0a3d
000003a0: ac40 e9bd 90d5 503d 03df cd3c 6f9f 063e
000003b0: 87fd 033e 4d08 b13d 43a0 823d 968a 373d
000003c0: ac89 e03d e6f0 123c 5d7c 8bbd aea5 eabd
000003d0: 3d6a 63bc 74d8 03bd c886 4cbd 58a9 4f3d
000003e0: d12f dd3c 7759 cebd de28 203e a90f bc3d
000003f0: 1677 2c3d c477 60bb fe87 f5bd e996 81bd

weight_hh_l0 f4 [160, 40]
-0.07388785 0.012451448 0.07774981 -0.06399426 0.1015771 0.060418155 0.048516426 -0.026683288
-0.07922794 0.036251534 -0.0250945 0.027545601 -0.10118539 0.09475824 -0.02694681 0.08718336
-0.096837044 0.05092153 -0.12630971 0.06527699 -0.079465665 0.00010633189 -0.12855084 -0.047863863
-0.14126842 -0.024415256 -0.06580936 0.11404346 -0.15373279 0.047638588 -0.13310023 0.049913336
-0.03640141 0.0052367654 0.01952257 -0.090964735 0.15062052 0.08221946 -0.018586548 -0.120733544
-0.09540109 0.052031476 0.10462067 0.08099529 -0.022721676 -0.073133565 0.12848794 -0.05376149
0.14921854 -0.03170575 -0.1323452 -0.16883405 0.022916215 -0.03877627 0.04624062 0.0007885652
0.14271411 -0.077359244 0.09959078 -0.007498896 0.1277078 0.14932255 0.14709081 0.06287944
0.08352725 -0.038457055 -0.09775855 -0.075907804 -0.120723985 0.0051919697 -0.10422978 0.15638356
-0.08097945 0.020555865 0.14959323 0.007046428 0.13607405 0.10069833 0.089069024 -0.06600663
-0.09697782 -0.07309704 0.08543781 -0.025961787 0.010171696 0.028980723 0.08326039 -0.024132468
0.051495794 0.039061047 -0.09883681 0.16128886 -0.106705114 0.10438049 0.030833274 -0.10219365
-0.179366 0.08785655 0.11353813 0.074677266 -0.06449835 -0.100280724 -0.13112365 0.104037985
0.10832576 -0.060366854 -0.010871534 -0.12014613 -0.040363684 0.06975416 0.06923161 0.060145844
0.11029315 0.040009465 0.13177559 0.05469459 0.020768277 0.050400604 0.010172801 -0.03336268
-0.17450465 0.03917092 0.05787004 -0.12920494 0.04750158 0.058752917 0.030797075 -0.012964961
0.17001337 -0.10736283 -0.032676373 -0.12868214 0.11777806 -0.102761224 0.1616357 -0.08215607
0.076815836 -0.016429527 -0.09357202 -0.029657802 -0.17461762 -0.050881654 -0.06809656 -0.04482711
0.13111757 0.11263356 -0.013866893 -0.007283233 -0.10225072 -0.13930511 -0.0064712157 -0.011552702
0.11853992 -0.16295856 -0.10405747 -0.14877583 -0.0012981284 -0.11385279 0.06344541 0.06573038
0.06803811 -0.12547505 -0.041466605 -0.031283278 0.15081444 0.026928846 -0.11211041 0.099590875
0.12493209 -0.029418383 -0.17634065 -0.10673471 -0.044531427 -0.12169753 0.11289248 -0.01837925
0.035031762 -0.0038071568 0.123198904 0.03376164 0.11290958 0.08950842 -0.053653784 0.056604642
-0.120815165 0.03328139 0.00016674113 0.12817179 -0.06605966 0.09518955 0.097986385 -0.038915694
-0.16595697 0.010415745 -0.038241424 0.10813005 -0.14544086 -0.06541273 -0.0057012467 0.09541677
0.11962463 0.093206674 -0.14626257 0.01934644 0.03991953 -0.019683883 -0.02955278 -0.124359034
0.1330732 -0.03398123 -0.16159502 -0.014648729 0.11057053 0.030749025 -0.11194411 -0.07483206
0.075107604 0.036458787 0.11658933 0.0021733495 -0.14589606 -0.10023188 -0.15078029 -0.04362622
-0.047942974 -0.07398725 -0.07777594 0.0868141 0.0160742 0.06155751 -0.09924062 0.020604398
-0.10161311 -0.1230018 -0.07439795 -0.10398769 0.020075627 0.08853122 -0.14725697 -0.059659157
-0.11368453 -0.10007906 -0.0250198 -0.026510019 0.03342147 -0.11151147 0.10416542 0.04156474
0.10298543 0.012157157 -0.09570082 -0.08270328 -0.07118095 0.10807083 0.10917403 -0.09563187
00000000: 8352 97bd 2801 4c3c 4b3b 9f3d 6c0f 83bd
00000010: a807 d03d 0779 773d 29b9 463d e996 dabc
00000020: 4242 a2bd 7d7c 143d fb92 cdbc 50a7 e13c
00000030: 493a cfbd 9c10 c23d 8ebf dcbc 308d b23d
00000040: 8052 c6bd 1893 503d 5557 01be f1af 853d
00000050: e5be a2bd 80fe de38 d5a2 03be e60c 44bd
00000060: aba8 10be 8102 c8bc 0fc7 86bd 9e8f e93d
00000070: 216c 1dbe ae20 433d 6d4b 08be ed71 4c3d
00000080: a519 15bd 2c99 ab3b cced 9f3c b84b babd
00000090: 443c 1a3e ad62 a83d d142 98bc 2643 f7bd
000000a0: a661 c3bd f51e 553d 5d43 d63d dce0 a53d
000000b0: cf22 babc 0dc7 95bd 5892 033e 0235 5cbd
000000c0: bfcc 183e e3dd 01bd 8085 07be d5e2 2cbe
000000d0: c9ba bb3c ded3 1ebd ce66 3d3d b7b7 4e3a
000000e0: a623 123e 866e 9ebd 40f6 cb3d 4db9 f5bb
000000f0: d5c5 023e 03e8 183e f99e 163e f0c6 803d
00000100: 5610 ab3d 2585 1dbd a235 c8bd 8d75 9bbd
00000110: 233e f7bd 6621 aa3b 6c76 d5bd 0323 203e
00000120: 8ed8 a5bd c664 a83c f82e 193e b9e5 e63b
00000130: ff56 0b3e ed3a ce3d d269 b63d 7c2e 87bd
00000140: 4f9c c6bd e7b3 95bd 05fa ae3d d0ad d4bc
00000150: 2fa7 263c fb68 ed3c 6c84 aa3d 74b1 c5bc
00000160: 41ed 523d 7afe 1f3d f46a cabd e828 253e
00000170: 3688 dabd 70c5 d53d 1096 fc3c e84a d1bd
00000180: b9ab 37be 23ee b33d ae86 e83d 65f0 983d
00000190: b617 84bd fb5f cdbd 4745 06be de11 d53d
000001a0: e5d9 dd3d 3c43 77bd 851e 32bc 2d0f f6bd
000001b0: 6454 25bd 45db 8e3d 4dc9 8d3d 7d5b 763d
000001c0: 60e1 e13d f7e0 233d 2ef0 063e 6f07 603d
000001d0: 3c22 aa3c dd70 4e3d d2ab 263c 4ea7 08bd
000001e0: 59b1 32be b071 203d 2309 6d3d 4d4e 04be
000001f0: 0491 423d e6a6 703d 264a fc3c fd6a 54bc
00000200: fc17 2e3e 0be1 dbbd a9d7 05bd 40c5 03be
00000210: a035 f13d 7a74 d2bd d483 253e 7141 a8bd
00000220: 9f51 9d3d 3797 86bc b0a2 bfbd ebf4 f2bc
00000230: f6ce 32be 4869 50bd 3676 8bbd a29c 37bd
00000240: af43 063e 6dac e63d f731 63bc 30a8 eebb
00000250: d368 d1bd 00a6 0ebe 7e0c d4bb 8b47 3dbc
00000260: 0fc5 f23d 9cde 26be 151c d5bd b158 18be
00000270: f625 aaba a72b e9bd abef 813d a69d 863d
00000280: 9157 8b3d 887c 00be e3d8 29bd e522 00bd
00000290: 1a6f 1a3e e299 dc3c 259a e5bd 4df6 cb3d
000002a0: 65dc ff3d d2fe f0bc a592 34be ba97 dabd
000002b0: 9666 36bd 8e3c f9bd 2c34 e73d 1590 96bc
000002c0: 777d 0f3d 7e81 79bb b54f fc3d a549 0a3d
000002d0: 233d e73d 3150 b73d 12c4 5bbd 45da 673d
000002e0: f16d f7bd 1152 083d 3bd7 2e39 773f 033e
000002f0: 494a 87bd bdf2 c23d 16ad c83d 1066 1fbd
00000300: a0f0 29be cda6 2a3c 0aa3 1cbd 4a73 dd3d
00000310: 73ee 14be 1cf7 85bd 86d1 babb de69 c33d
00000320: c2fd f43d 24e3 be3d dbc5 15be 6d7c 9e3c
00000330: a982 233d 1840 a1bc ac18 f2bc f3af febd
00000340: 5744 083e e72f 0bbd 2a79 25be 3901 70bc
00000350: cd72 e23d 61e5 fb3c f442 e5bd 8d41 99bd
00000360: 04d2 993d cf55 153d 63c6 ee3d c16e 0e3b
00000370: c765 15be 5f46 cdbd 2666 1abe 68b1 32bd
00000380: da5f 44bd a186 97bd fe48 9fbd 97cb b13d
00000390: 0aae 833c ba23 7c3d ab3e cbbd 8eca a83c
000003a0: 891a d0bd 5ee8 fbbd f45d 98bd 7ff7 d4bd
000003b0: a475 a43c db4f b53d 88ca 16be 295d 74bd
000003c0: 6fd3 e8bd 40f6 ccbd 53f6 ccbc 8a2b d9bc
000003d0: f4e4 083d 2060 e4bd ae54 d53d ca3f 2a3d
000003e0: 06ea d23d d02e 473c cbfe c3bd 5660 a9bd
000003f0: 51c7 91bd 3d54 dd3d a296 df3d a4da c3bd

bias_ih_l0 f4 [160]
0.17069429 -0.08078988 -0.111175396 -0.12552783 -0.047914762 0.1427659 0.13066469 -0.08993012
0.111672595 -0.065648064 0.077578686 0.10825933 0.044104576 -0.024809957 0.07665306 -0.07482859
0.11873323 0.09999889 0.07827271 -0.064720176 -0.08931386 -0.11186114 -0.09898231 0.04535085
-0.08791054 0.008027511 -0.04948317 0.09227823 0.041220423 -0.09028713 -0.16043302 0.019410651
0.18620096 0.08978343 0.056585282 0.085315675 -0.14502293 -0.09587853 0.065167405 0.08198524
0.104108304 0.078998774 -0.11859652 0.061257605 0.12014946 0.14790827 0.021732729 0.0023645572
8.703186e-05 0.015635857 0.099129185 -0.0073423474 0.1330627 0.02141019 0.16961503 -0.095279545
-0.0060488246 -0.10008383 -0.0170711 0.07067132 0.123298064 0.08625151 -0.10295995 0.13614145
-0.10666217 0.115732476 -0.094411895 0.089219235 0.18977892 -0.15235639 -0.045207594 0.021383904
-0.080510885 -0.095401965 0.15241463 0.13175108 -0.09047782 0.09907358 0.1042397 0.084059335
0.1193743 0.14545372 0.07211239 0.043282367 -0.11012712 -0.07411349 0.002986234 0.09111671
0.107907854 0.0074342815 0.09337467 -0.019644618 0.041141093 -0.103843756 -0.14734614 0.13534732
-0.12490322 0.0041627027 -0.14353195 -0.032101434 -0.10000762 0.0926009 -0.111417964 0.16394795
-0.042626716 0.008954223 -0.030079069 -0.07399852 -0.065834366 -0.066658735 0.0140455505 -0.13106616
0.16660236 0.07512399 0.08029501 0.033672046 -0.10037912 0.048684068 -0.098272465 0.06336312
0.058789942 0.015631363 -0.06794644 -0.1321251 0.062454056 -0.12662655 -0.007131138 -0.021043148
0.011868488 -0.072046444 0.040164415 0.1428381 -0.068038076 0.17853424 -0.13269623 -0.119250536
-0.11572736 0.023897402 0.11902846 -0.09998908 0.018305289 -0.14575295 0.04923555 -0.075830236
-0.07066639 0.002779313 0.08952959 -0.022518912 0.023325102 -0.11876847 0.11478611 0.06250685
0.06436993 0.16059746 0.03307206 0.09900764 -0.01925807 0.029928045 0.06756591 0.07777945
00000000: 7cca 2e3e 2a75 a5bd edaf e3bd 5e8a 00be
00000010: 4542 44bd 3931 123e f7cc 053e 482d b8bd
00000020: 9ab4 e43d 7e72 86bd 93e1 9e3d 11b7 dd3d
00000030: 00a7 343d 403e cbbc 48fc 9c3d bb3f 99bd
00000040: 682a f33d 38cc cc3d 714d a03d 038c 84bd
00000050: 2fea b6bd 7417 e5bd 3db7 cabd d0c1 393d
00000060: 710a b4bd d285 033c ddae 4abd 5efc bc3d
00000070: bfd6 283d 75e8 b8bd 8e48 24be 1603 9f3c
00000080: 77ab 3e3e 60e0 b73d f8c5 673d fcb9 ae3d
00000090: e480 14be f65b c4bd 7d76 853d e1e7 a73d
000000a0: bc36 d53d 1cca a13d bbe2 f2bd 41e9 7a3d
000000b0: ec10 f63d 4475 173e d608 b23c b0f6 1a3b
000000c0: e084 b638 c516 803c 3e04 cb3d 1398 f0bb
000000d0: 9741 083e 6c64 af3c 90af 2d3e ec21 c3bd
000000e0: 3835 c6bb c0f8 ccbd b1d8 8bbc 20bc 903d
000000f0: b283 fc3d a2a4 b03d abdc d2bd aa68 0b3e
00000100: b271 dabd 2605 ed3d 065b c1bd 93b8 b63d
00000110: 6855 423e 5003 1cbe 992b 39bd 4c2d af3c
00000120: e4e2 a4bd 1b62 c3bd 9512 1c3e c1e9 063e
00000130: 6f4c b9bd 17e7 ca3d a07b d53d 4d27 ac3d
00000140: 837a f43d d2f1 143e a9af 933d da48 313d
00000150: 548a e1bd d0c8 97bd b1b4 433b 669b ba3d
00000160: cbfe dc3d 469b f33b 383b bf3d c0ed a0bc
00000170: 9083 283d 09ac d4bd e8e1 16be 7d98 0a3e
00000180: 42cd ffbd 4867 883b 0afa 12be cb7c 03bd
00000190: ccd0 ccbd 8aa5 bd3d 1a2f e4bd f9e1 273e
000001a0: 5a99 2ebd bcb4 123c 6168 f6bc 898c 97bd
000001b0: 2bd4 86bd 6084 88bd 4f1f 663c 3536 06be
000001c0: cf99 2a3e 9bda 993d b671 a43d b3eb 093d
000001d0: 9193 cdbd f268 473d 1343 c9bd 86c4 813d
000001e0: b9cd 703d 580d 803c 8127 8bbd cd4b 07be
000001f0: d3cf 7f3d 64aa 01be 52ac e9bb ae62 acbc
00000200: 0c74 423c 168d 93bd 7183 243d 2744 123e
00000210: 8c57 8bbd aed1 363e 85e1 07be a039 f4bd
00000220: 7702 edbd 7cc4 c33c 31c5 f33d 13c7 ccbd
00000230: f9f4 953c 4340 15be 37ab 493d e24c 9bbd
00000240: 8ab9 90bd 2225 363b 4a5b b73d 9579 b8bc
00000250: 4914 bf3c e23c f3bd fb14 eb3d 9703 803d
00000260: 62d4 833d a973 243e 9276 073d 84c4 ca3d
00000270: 1ac3 9dbc a92b f53c ff5f 8a3d d54a 9f3d

bias_hh_l0 f4 [160]
0.08576371 -0.059867285 0.035406142 -0.0031923768 0.13977364 0.0016763522 0.15347548 0.112527445
-0.108232275 0.11530785 0.13251238 -0.09575513 0.1905195 0.08096033 0.034666486 0.109117985
0.029983345 0.15196006 0.049336523 -0.007745116 0.12560636 -0.014597816 -0.031160593 0.119981974
-0.008156802 0.1523698 0.04848806 -0.08578337 0.08343019 -0.13537754 0.11587784 0.083556145
0.08523417 -0.03002763 -0.037251513 -0.094756894 -0.13166164 -0.11170983 -0.06456147 -0.02179412
0.16325815 -0.024145799 -0.013243764 0.11829884 -0.11504618 -0.0075409543 -0.08104332 -0.06744593
-0.11586719 0.12175287 -0.14150645 -0.0059220623 0.08826846 -0.009450242 0.016870562 0.054799642
0.092714936 0.077247255 -0.12481183 0.1261182 -0.023267664 0.1287116 -0.005440734 0.07648642
-0.07522173 0.11270487 -0.12506273 -0.10877531 0.069569476 0.1034594 -0.070441335 0.099981755
-0.003481232 0.06186891 -0.08698163 0.0015784273 0.08234896 -0.03818227 0.11755438 0.0049299463
0.050829303 0.04818965 -0.015798785 0.13743941 -0.10015929 0.12790842 -0.001300203 0.06405272
-0.08540162 0.03818018 -0.11839406 0.013644227 -0.12876944 -0.08694767 0.11876376 -0.058677666
0.1433155 -0.02140051 0.1597641 0.089080065 0.1485733 0.038609568 0.06340802 -0.12011295
0.16324177 -0.08068891 -0.03417601 -0.03150264 -0.10084978 -0.04183041 -0.083726756 0.12555328
0.17396422 -0.093855925 0.022346282 -0.054956973 -0.0029446755 0.009961961 -0.15755226 -0.05704809
-0.014568283 0.05656183 -0.13517115 0.09033928 -0.06793981 0.007857818 -0.04281392 -0.03500751
0.13598058 -0.054692116 -0.030474927 0.08161015 0.012755991 0.11561029 0.01969959 -0.066023774
-0.13554552 0.040763058 -0.12219157 0.101109475 0.17061588 -0.004864294 -0.04743252 0.12025398
0.09326379 -0.006467243 -0.033046804 -0.0929164 0.1637499 0.10791625 -0.025772192 0.06564303
-0.092015415 0.08938583 -0.071472324 0.0033233657 -0.008691581 -0.07434762 0.11201996 0.14641634
00000000: e2a4 af3d 6637 75bd 0806 113d 3237 51bb
00000010: d220 0f3e 0cb9 db3a ad28 1d3e ca74 e63d
00000020: e2a8 ddbd 8626 ec3d 53b1 073e 441b c4bd
00000030: 8b17 433e 88ce a53d 72fe 0d3d 4079 df3d
00000040: a29f f53c 6b9b 1b3e 1815 4a3d beca fdbb
00000050: f49e 003e ae2b 6fbc 8044 ffbc 1cb9 f53d
00000060: 1ba4 05bc d406 1c3e 6a9b 463d 31af afbd
00000070: 73dd aa3d 69a0 0abe 5c51 ed3d 7c1f ab3d
00000080: 418f ae3d 81fc f5bc 0b95 18bd e70f c2bd
00000090: 4fd2 06be 20c8 e4bd ce38 84bd 9589 b2bc
000000a0: 252d 273e 69cd c5bc 5ffc 58bc aa46 f23d
000000b0: 559d ebbd 1c1a f7bb 0afa a5bd 1721 8abd
000000c0: c74b edbd 9259 f93d 11e7 10be dc0d c2bb
000000d0: 18c6 b43d 30d5 1abc 2234 8a3c 9775 603d
000000e0: 54e1 bd3d cf33 9e3d 589d ffbd 2125 013e
000000f0: d49b bebc f9cc 033e 2f48 b2bb eaa4 9c3d
00000100: da0d 9abd d0d1 e63d 7210 00be 97c5 debd
00000110: 717a 8e3d 86e2 d33d 8c43 90bd 3cc3 cc3d
00000120: 6225 64bb 416a 7d3d 6d23 b2bd 3be3 ce3a
00000130: 92a6 a83d 0365 1cbd 5ac0 f03d 638b a13b
00000140: 6332 503d 8362 453d 746c 81bc ebbc 0c3e
00000150: 5020 cdbd 6dfa 023e 936b aaba 132e 833d
00000160: 0be7 aebd d262 1c3d 9678 f2bd 098c 5f3c
00000170: 23dc 03be 9f11 b2bd 6a3a f33d fe57 70bd
00000180: 4cc1 123e 1f50 afbc 3399 233e 9c6f b63d
00000190: 9923 183e 1125 1e3d 10dc 813d c7fd f5bd
000001a0: da28 273e 3a40 a5bd 25fc 0bbd ea08 01bd
000001b0: 548a cebd 5d56 2bbd ef78 abbd 0a91 003e
000001c0: ad23 323e 8937 c0bd 8d0f b73c 901a 61bd
000001d0: 75fb 40bb 7e37 233c 6155 21be 42ab 69bd
000001e0: cfaf 6ebc 61ad 673d 4e6a 0abe cd03 b93d
000001f0: 0724 8bbd 14be 003c a65d 2fbd 0964 0fbd
00000200: 7e3e 0b3e d704 60bd 8ea6 f9bc 3923 a73d
00000210: 81fe 503c 16c5 ec3d 0961 a13c 7937 87bd
00000220: 72cc 0abe 2af7 263d 933f fabd 7c12 cf3d
00000230: eeb5 2e3e a864 9fbb 9a48 42bd b847 f63d
00000240: 1601 bf3d 2beb d3bb 165c 07bd f44a bebd
00000250: 0eae 273e 3203 dd3d 3420 d3bc da6f 863d
00000260: 9472 bcbd eb0f b73d 1560 92bd d3cc 593b
00000270: 2267 0ebc 9143 98bd b96a e53d 2aee 153e

weight_ih_l1 f4 [160, 40]
0.07743838 -0.023283275 -0.11496363 0.019492378 0.033977836 0.08389825 0.012860413 -0.18581586
-0.089922026 -0.12827934 0.08073229 0.03255942 -0.010410803 0.0841554 0.062605046 -0.055524435
0.101696074 -0.12048989 -0.15135741 0.036744982 -0.08048396 0.09680125 -0.07063011 -0.008716609
0.0184223 0.04362323 0.14493132 0.053290248 0.025274236 -0.07087727 -0.08773768 -0.07533106
0.043536928 -0.058067493 0.032885723 0.06309126 0.09332787 -0.13859917 -0.007364779 -0.12275336
-0.07482763 0.03443442 0.09566774 -0.11197367 -0.14704868 0.18578304 -0.12283524 -0.0044299406
0.08014297 0.14386594 -0.11767087 -0.011071327 -0.16894482 -0.15087032 -0.048297953 -0.10776985
-0.10853489 0.032628976 -0.12839378 -0.11694295 0.13162412 -0.097609855 0.12367803 0.15688205
-0.008477344 -0.14537407 -0.0012068204 0.116322696 -0.06049062 -0.13509017 0.13725951 0.13335635
0.0034897937 0.09346369 -0.0608461 0.08200637 0.03161904 0.08945754 -0.08029673 -0.10710296
0.10369999 0.0626605 0.14161916 0.043089006 0.06345912 0.13763608 0.07494809 0.09969911
-0.069156095 0.015123792 -0.082393974 0.107618146 0.015485155 -0.04847376 0.025545845 0.15814114
-0.06172128 0.12039973 -0.09871548 0.022853086 -0.12240751 0.14181335 -0.056681488 -0.100376695
0.15567057 0.07126982 0.09209334 -0.12929125 0.027638825 0.12082636 0.0750103 0.003082192
0.0048941765 -0.09175138 -0.019698836 0.01608691 0.10802895 0.1417695 -0.15355706 0.011423887
0.101738 -0.024138534 -0.056728307 0.014024073 -0.1471706 0.00059058145 0.112204246 0.076359
0.07773541 0.08597921 -0.1651649 -0.121847294 -0.11120393 -0.0033700645 -0.11848456 0.019180022
0.08903641 0.18295527 -0.13213652 0.15852548 -0.11576897 0.09759521 -0.08987099 0.001994536
0.00025665812 -0.11730616 -0.122380994 -0.014158894 0.043133833 -0.11000508 0.013173108 -0.13637282
0.08706175 0.045431767 -0.08849354 0.10744853 -0.11409056 0.11774248 0.10231775 -0.037221197
0.00044442882 -0.08744109 0.06294551 0.069122076 -0.08960002 -0.018279526 0.11817749 -0.000824386
-0.0050199404 0.17221391 0.13348368 -0.17011438 -0.044691276 0.06256184 -0.029248564 -0.049760375
0.14016487 -0.04631189 0.1365177 -0.12027577 0.0039139246 0.103699684 0.17059888 0.010168794
0.060463823 0.032186203 -0.14867851 0.07309133 -0.040639948 -0.07944905 0.18078797 -0.112082094
0.037918612 -0.16191885 -0.014865015 -0.08735488 0.14451823 -0.0064606597 -0.17221585 -0.07403329
-0.03237657 -0.03500232 0.01670858 -0.07310819 -0.011757227 0.100903675 -0.10206085 -0.15590172
0.059295103 0.04039165 0.092462406 -0.18251202 -0.013780789 -0.05293824 0.053335216 -0.17369224
-0.027791012 -0.12866494 -0.03845519 -0.13887997 -0.015184239 0.06428333 -0.057986066 -0.07557606
-0.13360095 0.14228934 -0.15271896 0.10814927 0.16034257 -0.021417178 0.16038226 0.019548478
0.049027026 -0.09961434 -0.031915657 0.004394757 0.09068914 0.052498873 -0.0797017 -0.08091115
-0.07673345 0.010482275 0.07538074 -0.09634944 -0.07765762 -0.040112704 -0.068291955 -0.09728367
-0.021240775 0.02317629 0.14453806 -0.10760395 0.015587374 -0.08860892 -0.13124333 -0.16268192
00000000: 0398 9e3d 91bc bebc 0d72 ebbd 7bae 9f3c
00000010: 582c 0b3d d8d2 ab3d 7bb4 523c 8346 3ebe
00000020: 0a29 b8bd a95b 03be f956 a53d 075d 053d
00000030: 1392 2abc ab59 ac3d 1337 803d 976d 63bd
00000040: 0846 d03d 67c3 f6bd 70fd 1abe e881 163d
00000050: c6d4 a4bd bc3f c63d 85a6 90bd 1cd0 0ebc
00000060: 5dea 963c 46ae 323d e068 143e e046 5a3d
00000070: ea0b cf3c 1a28 91bd d0af b3bd 2c47 9abd
00000080: c753 323d 2ed8 6dbd 2eb3 063d fe35 813d
00000090: af22 bf3d f1ec 0dbe 3e54 f1bb 1d66 fbbd
000000a0: 3a3f 99bd 1b0b 0d3d 73ed c33d 7452 e5bd
000000b0: ee93 16be e93d 3e3e 0b91 fbbd 0929 91bb
000000c0: ff21 a43d 9851 133e 6dfd f0bd 8364 35bc
000000d0: dfff 2cbe c07d 1abe 13d4 45bd 70b6 dcbd
000000e0: 8a47 debd f6a5 053d a979 03be c97f efbd
000000f0: 79c8 063e ade7 c7bd e84a fd3d b0a5 203e
00000100: 8fe4 0abc f1dc 14be 2c2e 9eba 983a ee3d
00000110: 03c5 77bd 1455 0abe c28d 0c3e 918e 083e
00000120: 06b5 643b e469 bf3d c339 79bd f5f2 a73d
00000130: f782 013d 8435 b73d 9d72 a4bd cc58 dbbd
00000140: a960 d43d 2654 803d 9d04 113e 197e 303d
00000150: dbf6 813d 79f0 0c3e 627e 993d 0c2f cc3d
00000160: b6a1 8dbd c8c9 773c 2cbe a8bd e766 dc3d
00000170: 73b5 7d3c 6c8c 46bd 8545 d13c c0ef 213e
00000180: 74cf 7cbd 2294 f63d 572b cabd 6536 bb3c
00000190: cab0 fabd 8537 113e d92a 68bd 4c92 cdbd
000001a0: 1b68 1f3e e9f5 913d 6f9b bc3d ed64 04be
000001b0: d16a e23c d073 f73d 009f 993d 9afe 493b
000001c0: 545f a03b 26e8 bbbd 745f a1bc b2c8 833c
000001d0: 483e dd3d 062c 113e 103e 1dbe 412b 3b3c
000001e0: 035c d03d 2dbe c5bc f15b 68bd 3ac5 653c
000001f0: e4b3 16be 40d1 1a3a 57cb e53d 1b62 9c3d
00000200: be33 9f3d de15 b03d fd20 29be 138b f9bd
00000210: e3be e3bd 4ddc 5cbb 08a8 f2bd 6c1f 9d3c
00000220: b958 b63d a058 3b3e cc4e 07be 8154 223e
00000230: 4818 edbd ffdf c73d 480e b8bd c3b6 023b
00000240: 1290 8639 363e f0bd e3a2 fabd b5fa 67bc
00000250: 1aad 303d 584a e1bd 05d4 573c 51a5 0bbe
00000260: 6e4d b23d a916 3a3d 1a3c b5bd fa0d dc3d
00000270: 50a8 e9bd f822 f13d f88b d13d 4175 18bd
00000280: 3a02 e939 5014 b3bd 93e9 803d e08f 8d3d
00000290: 3780 b7bd f2be 95bc 0a07 f23d 9c1b 58ba
000002a0: 507e a4bb d858 303e f2af 083e 7732 2ebe
000002b0: 330e 37bd 6c20 803d af9a efbc 89d1 4bbd
000002c0: 6187 0f3e 89b1 3dbd 4ccb 0b3e 2553 f6bd
000002d0: 6140 803b 8060 d43d 79b1 2e3e 039b 263c
000002e0: eaa8 773d aed5 033d 2e3f 18be e8b0 953d
000002f0: 1376 26bd 2fb6 a2bd 7b20 393e 4c8b e5bd
00000300: 8c50 1b3d 0ece 25be 648c 73bc 1ee7 b2bd
00000310: 96fc 133e f1b3 d3bb 5a59 30be c49e 97bd
00000320: 4b9d 04bd 985e 0fbd 6fe0 883c bfb9 95bd
00000330: 62a1 40bc 96a6 ce3d 4705 d1bd b3a4 1fbe
00000340: 6cdf 723d b771 253d ee5c bd3d 6ee4 3abe
00000350: d2c8 61bc c5d5 58bd 0776 5a3d 61dc 31be
00000360: faa9 e3bc bec0 03be 3083 1dbd 8d36 0ebe
00000370: 50c7 78bc fba6 833d cc82 6dbd 9fc7 9abd
00000380: b0ce 08be 4cb4 113e 5c62 1cbe 5d7d dd3d
00000390: d830 243e 1473 afbc 3f3b 243e 2124 a03c
000003a0: 90d0 483d 9a02 ccbd feb9 02bd e501 903b
000003b0: 3abb b93d 0f09 573d a53a a3bd bfb4 a5bd
000003c0: 6d26 9dbd d9bd 2b3c 3861 9a3d db52 c5bd
000003d0: f50a 9fbd 384d 24bd a7dc 8bbd a93c c7bd
000003e0: 2201 aebc 34dc bd3c c901 143e 765f dcbd
000003f0: 2f62 7f3c 9878 b5bd a764 06be 1796 26be

weight_hh_l1 f4 [160, 40]
0.019240592 -0.066835664 0.0003645356 0.028164627 -0.17116787 -0.15138316 0.11904537 0.15976518
0.02726863 -0.029987782 -0.06854962 -0.123403534 0.04577362 0.107771225 -0.03387794 -0.08730698
0.054229833 0.05542039 0.13088809 -0.07714024 -0.096388035 0.14034241 -0.082049765 -0.11920777
0.06307864 0.034022484 -0.0399188 0.01487319 0.10541614 -0.12867582 0.036967225 0.04672966
0.056101467 -0.037213147 -0.17332816 0.15757293 0.10351234 -0.0074125794 0.0967678 0.117355056
-0.015722148 -0.10623773 -0.09611164 -0.039721143 -0.1679152 -0.043170612 -0.016042884 0.16111508
0.02419743 0.09143377 0.017159808 -0.010286 -0.081834994 -0.011486921 0.052140128 0.13406962
-0.10790995 0.13103406 0.12641457 0.16458596 0.07191914 -0.032058716 -0.14369753 0.036406443
-0.026042083 -0.037891816 0.050432567 0.042084727 -0.008254042 0.020410575 0.074777916 -0.09370118
0.10693349 0.05146244 -0.016254742 0.1466123 0.14829275 0.09626448 -0.102190584 0.050300904
0.047613688 -0.08639121 -0.13396628 -0.033113997 -0.009091455 -0.07258545 0.050803497 -0.1058403
-0.013626902 0.010713456 0.019211698 -0.031733803 0.03812005 -0.043284878 0.062243678 -0.12024952
-0.019577708 -0.03401655 -0.08481442 0.021226855 -0.114661425 0.02094767 0.0987848 0.058539506
0.103255354 -0.04911815 -0.014870123 0.1557756 0.10903194 -0.12925392 -0.06574498 0.080448955
-0.06817739 0.047417536 0.0045591807 -0.10709022 -0.029875375 -0.13265455 -0.051980417 -0.12773277
-0.11435689 -0.08010836 0.02124207 -0.15653577 -0.058527134 -0.019453302 -0.093477435 0.14680706
-0.13088767 -0.11192619 0.03499378 -0.13991696 -0.041129634 -0.05476608 0.031628095 -0.07244355
0.0072126193 -0.10522334 -0.12438862 0.07077654 -0.052296847 0.11179523 0.09479225 0.12418797
-0.027589632 0.18045351 0.13672654 0.15915996 0.113888085 -0.111929856 -0.048408628 -0.019904982
-0.112338334 0.11684799 -0.02604257 -0.049680747 0.09203852 -0.07225774 0.08672659 -0.12960091
0.13520971 -0.0665997 -0.05893363 0.060134366 0.16824192 -0.03168503 0.021768495 0.16529617
0.08983012 -0.12355076 -0.15920417 0.08983662 -0.13116796 -0.09509788 -0.165654 -0.1650413
0.044146154 0.005637334 0.062188804 0.13700841 -0.07060583 -0.11984687 -0.07181706 -0.09551868
0.060291752 -0.100142606 -0.03303304 0.094945066 -0.044446986 -0.11808364 -0.04285115 -0.030878969
-0.15430802 -0.05157735 0.10739518 -0.08432809 0.04498715 -0.009536029 -0.07593022 -0.13740638
-0.010838704 -0.07476753 0.07826961 0.041770987 0.14313519 -0.06897373 -0.12635899 0.10660106
-0.00058261945 0.0048853946 0.024168428 0.120703936 -0.11442121 0.0741081 0.002661607 -0.15940535
-0.08922523 0.047285732 -0.06319775 -0.03928769 -0.0027079803 -0.09560633 -0.11567074 0.045684185
-0.17746317 -0.02867317 -0.09502579 0.084842734 0.08407843 0.09942274 0.0794621 0.07085637
0.05833429 0.01344747 0.052987628 0.09956872 -0.0729647 0.15374225 0.042116623 -0.0025786136
0.09146349 0.022866799 0.16150919 -0.055887055 0.05643629 -0.13153481 -0.03954584 0.015290747
0.010079375 -0.006214162 -0.14727308 -0.13598844 0.020987954 0.10172317 0.10984956 -0.012620134
00000000: 729e 9d3c 23e1 88bd 241f bf39 81b9 e63c
00000010: a146 2fbe 3004 1bbe 0fce f33d 7c99 233e
00000020: 7662 df3c f0a8 f5bc be63 8cbd feba fcbd
00000030: 1f7d 3b3d 29b7 dc3d 98c3 0abd 00ce b2bd
00000040: 1a20 5e3d 7e00 633d 8707 063e b4fb 9dbd
00000050: 1767 c5bd ecb5 0f3e b509 a8bd 3423 f4bd
00000060: 602f 813d 295b 0b3d e581 23bd aeae 733c
00000070: 6be4 d73d 98c3 03be f26a 173d 9a67 3f3d
00000080: a7ca 653d d06c 18bd f07c 31be cc5a 213e
00000090: 47fe d33d 39e5 f2bb 322e c63d d957 f03d
000000a0: bccb 80bc 2b93 d9bd 2ed6 c4bd a3b2 22bd
000000b0: f6f1 2bbe abd3 30bd 5e6c 83bc 5afb 243e
000000c0: b039 c63c a141 bb3d ba92 8c3c 9c86 28bc
000000d0: 1b99 a7bd a433 3cbc e390 553d 8c49 093e
000000e0: e4ff dcbd cb2d 063e d272 013e 3989 283e
000000f0: 584a 933d 0050 03bd 7225 13be ec1e 153d
00000100: 3556 d5bc 7334 1bbd 6192 4e3d 0961 2c3d
00000110: f63b 07bc 1434 a73c 2a25 993d 67e6 bfbd
00000120: f2ff da3d 48ca 523d aa28 85bc 8921 163e
00000130: 0eda 173e 5026 c53d 4c49 d1bd 5208 4e3d
00000140: 9206 433d e0ed b0bd 752e 09be 8ba2 07bd
00000150: 53f4 14bc aea7 94bd 5417 503d cdc2 d8bd
00000160: 5f43 5fbc 7e87 2f3c da61 9d3c 4efb 01bd
00000170: c523 1c3d 7c4b 31bd 3af3 7e3d 6145 f6bd
00000180: 6e61 a0bc f054 0bbd 2fb3 adbd f1e3 ad3c
00000190: 9cd3 eabd 739a ab3c af4f ca3d 1fc7 6f3d
000001a0: 8b77 d33d 1d30 49bd d1a1 73bc a483 1f3e
000001b0: 234c df3d 245b 04be 4ea5 86bd 6cc2 a43d
000001c0: 96a0 8bbd e438 423d 2e65 953b 1e52 dbbd
000001d0: 34bd f4bc 98d6 07be 6be9 54bd 61cc 02be
000001e0: f233 eabd da0f a4bd d903 ae3c ea4a 20be
000001f0: 26ba 6fbd 885c 9fbc 1971 bfbd 9754 163e
00000200: 6b07 06be 8f39 e5bd a355 0f3d 6446 0fbe
00000210: 8c77 28bd 6652 60bd 768c 013d 495d 94bd
00000220: d657 ec3b 567f d7bd 76bf febd 4af3 903d
00000230: 3835 56bd e6f4 e43d 7022 c23d 4356 fe3d
00000240: a703 e2bc cec8 383e 0b02 0c3e d4fa 223e
00000250: 283e e93d 7b3b e5bd 2048 46bd c60f a3bc
00000260: a411 e6bd 004e ef3d 3a57 d5bc 0a7e 4bbd
00000270: b17e bc3d defb 93bd b69d b13d 1ab6 04be
00000280: 6a74 0a3e 6c65 88bd 6464 71bd 744f 763d
00000290: 9c47 2c3e 29c8 01bd d853 b23c 6643 293e
000002a0: dbf8 b73d 2e08 fdbd 6b06 23be 43fc b73d
000002b0: e550 06be adc2 c2bd 34a1 29be 9600 29be
000002c0: 99d2 343d 63b9 b83b b0b9 7e3d ef4b 0c3e
000002d0: ca99 90bd 4772 f5bd d314 93bd 4c9f c3bd
000002e0: 7cf4 763d 9117 cdbd a74d 07bd 8f72 c23d
000002f0: 0b0e 36bd d6d5 f1bd b084 2fbd e4f5 fcbc
00000300: ec02 1ebe c542 53bd 01f2 db3d 35b4 acbd
00000310: 7244 383d 013d 1cbc 4e81 9bbd 42b4 0cbe
00000320: d294 31bc b81f 99bd d14b a03d 0e18 2b3d
00000330: 0892 123e 1942 8dbd 4064 01be a851 da3d
00000340: eeba 18ba a915 a03b defc c53c a033 f73d
00000350: ab55 eabd fdc5 973d 5b6e 2e3b 283b 23be
00000360: b8bb b6bd afae 413d d26d 81bd 21ec 20bd
00000370: 5f78 31bb 40cd c3bd c8e4 ecbd 571f 3b3d
00000380: e8b8 35be ffe3 eabc e29c c2bd 07c2 ad3d
00000390: 5031 ac3d 269e cb3d 07bd a23d 251d 913d
000003a0: f0ef 6e3d c752 5c3c 8e09 593d afea cb3d
000003b0: 846e 95bd 9c6e 1d3e 7b82 2c3d f5fd 28bb
000003c0: 3651 bb3d 2753 bb3c aa62 253e d3e9 64bd
000003d0: bd29 673d 10b1 06be d2fa 21bd 0b86 7a3c
000003e0: f623 253c 2ba0 cbbb c1ce 16be 8e40 0bbe
000003f0: eeee ab3c 3d54 d03d cef8 e03d aec4 4ebc

bias_ih_l1 f4 [160]
-0.02689292 0.12430241 -0.019757627 0.06541088 0.110046715 0.12811162 0.0019275435 -0.12038564
0.09698035 -0.092518605 0.0072408197 0.11122025 -0.13093224 -0.13110001 -0.014902749 0.040578533
0.117734715 -0.12935816 -0.0017467081 -0.11570726 -0.08892936 -0.054353733 -0.0955828 0.11321272
0.073691264 0.10942033 0.027712902 -0.031961013 0.13043146 0.103461646 -0.11076599 -0.006968485
-0.12722275 0.16381793 0.022364086 -0.06278268 -0.12984928 -0.09293955 -0.11943484 -0.09267997
-0.14371918 0.0073977476 -0.12821145 -0.12169814 0.1884287 0.111327484 -0.1118654 -0.060846146
0.05275538 -0.1304482 0.15473168 0.1462925 -0.06133778 0.007935711 0.11104289 0.018441232
-0.023193525 -0.07532006 0.022327982 -0.000896987 -0.0101840375 0.042605743 0.052145932 0.056978725
-0.076031186 0.0066054612 0.057368517 0.0578886 -0.09689463 0.00030628784 -0.03407834 -0.11713524
-0.072547175 -0.02928192 -0.021686872 -0.057169892 -0.10007159 -0.0083981585 0.1355213 0.08347905
-0.004340641 -0.11416107 -0.07264338 0.0017654741 0.14515449 0.04197799 -0.09907757 0.06252201
-0.014555214 -0.11413123 0.06537755 -0.058885336 -0.13236427 -0.0825992 -0.0840383 -0.14123073
-0.028520444 0.12799487 -0.0047216285 -0.14327815 0.076927535 0.029111283 -0.111320175 -0.06403519
-0.07252007 0.061962858 -0.07766434 -0.14366065 -0.12165276 0.13391761 0.026170671 -0.027962625
0.021585278 0.09292514 -0.1268408 -0.089904726 0.052419197 0.058967736 0.0937557 0.04971579
0.046127256 0.04964837 0.14547792 -0.017681167 0.14090703 0.1353974 0.091627605 0.040992193
-0.09538855 0.15428829 -0.050238956 -0.10254237 0.0833129 -0.048333406 -0.12299637 0.091682754
0.1578762 -0.020311872 0.029891955 -0.04363593 -0.04577561 -0.11456817 0.00298343 0.10098094
-0.095728256 0.03984852 0.103363045 -0.027821489 -0.025903905 0.14030541 0.08906566 0.18985085
-0.119624764 0.09779079 -0.019593364 0.0050017503 -0.103955485 -0.054198887 -0.028086215 0.0043670386
00000000: 8a4e dcbc 4392 fe3d bfda a1bc 24f6 853d
00000010: 2c60 e13d b12f 033e a1a5 fc3a bf8c f6bd
00000020: a29d c63d 657a bdbd 6644 ed3b 71c7 e33d
00000030: 1a13 06be 153f 06be a92a 74bc ad35 263d
00000040: e61e f13d 7776 04be ccf1 e4ba eef7 ecbd
00000050: 9920 b6bd 05a2 5ebd eac0 c3bd 12dc e73d
00000060: 72eb 963d c417 e03d 2b06 e33c 8de9 02bd
00000070: d38f 053e b3e3 d33d 48d9 e2bd e457 e4bb
00000080: ae46 02be e3bf 273e e334 b73c 3594 80bd
00000090: 36f7 04be 1757 bebd 419a f4bd ffce bdbd
000000a0: 1f2b 13be ce68 f23b dd49 03be e03c f9bd
000000b0: 74f3 403e aaff e33d b019 e5bd cf39 79bd
000000c0: 0616 583d 3794 05be fb71 1e3e b3cd 153e
000000d0: 533d 7bbd c904 023c 746a e33d 1112 973c
000000e0: 5900 bebc 6741 9abd 2ce9 b63c c723 6bba
000000f0: f3da 26bc 5c83 2e3d f996 553d 8662 693d
00000100: 3db6 9bbd a072 d83b 40fb 6a3d 991c 6d3d
00000110: b170 c6bd 4295 a039 bb95 0bbd 9ae4 efbd
00000120: 9d93 94bd a3e0 efbc aba8 b1bc fa2a 6abd
00000130: 55f2 ccbd 6e98 09bc 18c6 0a3e 10f7 aa3d
00000140: f03b 8ebb 47cd e9bd 0dc6 94bd 7b67 e73a
00000150: 61a3 143e 1df1 2b3d 2ee9 cabd 8a0b 803d
00000160: fe78 6ebc a2bd e9bd aae4 853d c031 71bd
00000170: 808a 07be c529 a9bd 461c acbd ca9e 10be
00000180: b5a3 e9bc 1611 033e e4b7 9abb 82b7 12be
00000190: 2f8c 9d3d c97a ee3c d5fb e3bd e224 83bd
000001a0: 6785 94bd c4cc 7d3d 7b0e 9fbd c71b 13be
000001b0: 1525 f9bd b321 093e e063 d63c e011 e5bc
000001c0: 9cd3 b03c 894f be3d 8ee2 01be f81f b8bd
000001d0: 83b5 563d 2788 713d fd02 c03d c9a2 4b3d
000001e0: efef 3c3d 175c 4b3d 2af8 143e 18d8 90bc
000001f0: ef49 103e 9ea5 0a3e 41a7 bb3d 6ee7 273d
00000200: 125b c3bd c0fd 1d3e 5dc7 4dbd bc01 d2bd
00000210: f49f aa3d 40f9 45bd 85e5 fbbd 2bc4 bb3d
00000220: 4caa 213e 1565 a6bc f9df f43c 97bb 32bd
00000230: 357f 3bbd b7a2 eabd a685 433b 18cf ce3d
00000240: 2d0d c4bd 3438 233d 01b0 d33d e4e9 e3bc
00000250: 6d34 d4bc 39ac 0f3e 0f68 b63d 4368 423e
00000260: d4fd f4bd 8a46 c83d 4382 a0bc b9e5 a33b
00000270: 9de6 d4bd a7ff 5dbd 1015 e6bc 6019 8f3b
