examples/src/main/resources/deepar.pt (torch, 133723 bytes, 10 tensors)

weight f4 [1, 40]
00000000: e6cd 53be 59e8 89be 3196 69be f6ba 53be
00000010: 268e 98be 5cf6 283e ded5 793e 5c01 1abe
00000020: 6ee0 a1be 385d 953e f5e9 94be 5dd4 ba3c
00000030: 6578 863e b2aa 523d 76c7 763e bff2 72be
00000040: 1ee2 12be 97b7 5f3e 060d 263e 0ae8 46be
00000050: 1c9a 48bd 9370 3a3e 5917 a6be a7ec 5bbe
00000060: 1699 5ebe d4ee 733e 20a8 c03d dcb1 acbd
00000070: 81d2 313d f093 23bb c347 4e3e 50b3 69be
00000080: ffb8 16be 456e 9abe aa29 813e 9272 883e
00000090: 477d 823e 86d5 bb3d fdaa 8c3e da71 863e
-0.20684013 -0.2693508 -0.228112 -0.20676789 -0.2979595 0.16500229 0.2439799 -0.15039581
-0.3161654 0.29172683 -0.29084745 0.02280634 0.2626373 0.05143232 0.24099526 -0.23725413
-0.1434407 0.21847378 0.16215906 -0.19424453 -0.048975095 0.18207006 -0.32439688 -0.21476994
-0.21738085 0.23821574 0.09407067 -0.084323615 0.043413643 -0.0024960004 0.20144562 -0.22822309
-0.14719008 -0.30162254 0.252271 0.2664991 0.25486204 0.09171586 0.27474204 0.26258737

weight f4 [1, 40]
00000000: db6a 93bd 5f82 aa3d c918 1cbe c8ef d43c
00000010: c36a ea3d 3d31 53be 1d80 9fbd 5142 4d3d
00000020: b82b 003e dceb 653b 66b7 bfbc 68be 72be
00000030: 8d1e 093e 4eed 7fbe dae6 48bd 70da 8dbd
00000040: 752a 7a3d fe3a 37be 4732 31bd 5db7 443e
00000050: 68d9 c6bd c9d6 5bbd e73d 503d d7a4 6f3d
00000060: f4c9 3d3c 057e 21be 48e7 7dbe 0920 ae3d
00000070: 2e12 433e a70e 363e f773 763e 5c98 28bd
00000080: 591a b1bd e758 c7bc 5649 aabd 0237 85ba
00000090: 0f49 173e 9e7a 1e3e a860 01be ebdd d1bd
-0.071981154 0.083256476 -0.1524383 0.025993243 0.114461444 -0.20624252 -0.077881075 0.050112072
0.12516677 0.003508321 -0.02340288 -0.23705447 0.1339056 -0.24992868 -0.049048282 -0.06926429
0.061075646 -0.17893597 -0.04326084 0.19210573 -0.09709436 -0.053671632 0.050840285 0.058506813
0.011583794 -0.15770729 -0.24795258 0.08502204 0.19049904 0.17779027 0.24067675 -0.041160926
-0.086476035 -0.024334384 -0.08314769 -0.0010163488 0.14773963 0.15476462 -0.12634528 -0.102474056

weight_ih_l0 f4 [160, 24]
00000000: 97e5 343e 6b07 9d3e 7ee7 9c3e f603 0a3e
00000010: d605 903e 6fb5 28bd 50b0 693d 0567 66bd
00000020: e445 6b3d 752e 81bd dbfe 17be ebf8 f4bb
00000030: d2fd 843d e0e4 0fbd 489f 9dba d042 65bd
00000040: 3c51 2b3e 460b 0f3e ee11 39bc 3d31 ce3d
00000050: 7a78 5f3d b64f cbbd 1119 17be 1b2b 99bc
00000060: fbc3 763e 5271 f0bc bb37 583e ee8c 8dbd
00000070: 4a19 8a3d 28d4 f33d b8c1 313d 8b5f 07bd
00000080: 85d7 cf3b 2ccf 41bd 1b71 12be ad27 d43d
00000090: 9566 973d f3d4 e33d 3b9f 8bbc 2cfd 82bb
000000a0: 602c d53d 4b3a 023e f2a9 a73d 379d 92bd
000000b0: 5fee 60bc 26a3 bebd 1a43 1c3d fa89 213d
000000c0: 0899 d33a b969 03bb aec0 5cbc ef8d c6bd
000000d0: 20e3 8bbc ca55 27bd 34ad 503e b3e7 5fbd
000000e0: a7bf 763d 9769 e13d 8751 d13d 3a64 983d
000000f0: e295 debd cd7f acbc 4568 e7bd e277 693d
00000100: 9e94 f33d 0f3b c7bd 603e 403e 5300 ebbc
00000110: ca05 9d3d 38b6 213d 263f 9dbd bcc5 953e
00000120: fb59 5fbd 432f f5bc 6c99 913d 3051 7f3c
00000130: b9aa 4dbc 5e67 45bd 605f 003e 32fe 713e
00000140: eece 92bc 84cf 2b3e f1d4 013d 9aca 533d
00000150: 0a53 d53d 7e3a f03a cd16 5f3d 4404 173e
00000160: a04f 893c e7ea 28bd 2c16 303e 1872 73bd
00000170: 5ed8 873e ea2a a2bd 7d6d 17bd c27b 7c3e
00000180: 87cd 34be 46c8 15be 9d15 d2bd e68b 22bd
00000190: 4f60 dc3c 6e13 dabc ccc8 af3c 2284 e83d
000001a0: d7d8 2fbc 757f 3d3e e341 e13d 5310 f2bc
000001b0: 88e3 24be 97c6 1c3e 1771 bfbc 2443 ff3d
000001c0: 1c07 713d fb3c 70bd 60e0 843e 10ea 993d
000001d0: 97d2 963c 8ce6 6b3d 0bd5 d43d 9ba4 ec3d
000001e0: 7bdd 90be cf54 54be 63ac 2a3e 0379 b9bc
000001f0: ccbb 2b3d 5a1f 763c fbfa 6cbd 275a 743e
00000200: a8de 853d ac64 523e a625 59bd 0cda 0bbd
00000210: 9787 b43d 8064 b23d c844 253e f110 f4bc
00000220: 8594 c3bd 35a7 7dbd ad1f 833e 77f8 893d
00000230: ada4 923d 306e a4bd afaa b3bd 5b0b 7c3e
00000240: dc43 873e 144d 393e 8e50 f83d 5d9b ea3b
00000250: 9777 813e 9cfb 5c3e 24ec 1e3e 6c7c 343e
00000260: aa3e 243e 261d 7e3d 5716 02bd f31a ab3c
00000270: 5e7c c53d 2f65 1c3c 9bfd e33c 7b85 1b3e
00000280: 4c3e 473e 3793 513e c120 ae3e d826 b9bd
00000290: 0a30 e63d 24c9 0a3e 3bce 5e3d fd23 473e
000002a0: f41c 13bd ab8e f9bc 47f2 3bbe 94b6 173e
000002b0: 6cf5 2c3e a81b 8c3d 8237 e63d 5f2d 3c3e
000002c0: 64c8 eb3d 84e0 9b3b c9c8 e2bc f98f 213d
000002d0: 7a54 223d fab0 3a3e b558 9dbd 5fc3 b53d
000002e0: b896 f53d 6bb6 d93d dc0e 753e e5d6 5f3c
000002f0: 50ae ef3d c465 a83c d72f 51bd 5f26 023e
00000300: 6c3f c7bc 4ca9 1b3c 0182 893e db6d 603e
00000310: 3a68 813e b826 ac3d 49e3 98bd 68c5 4c3c
00000320: 6204 113e 8542 ae3d 1e2b 3abe eddd ccbd
00000330: 9aea 00bc a25c 633d 0f86 f7bd 22e0 9fbd
00000340: ef06 bf3d 27a2 c33d a16a 473e efdd 8ebd
00000350: 0089 843e 356a 89bd 69d2 28be 623f 783d
00000360: 7c02 2b3b bc29 0abe 09a0 e1bd 229c cdbd
00000370: 715b 80bd d64d 4cbd c0d4 493d 9a71 1b3b
00000380: 2f7b b1bd d65b 5f3d 5ece 8a3c 99e9 89bd
00000390: 1c8b b5ba 237e 96bd bd61 da3c 3359 35bd
000003a0: cf94 393e 694e 453e 3db9 f63d 1111 5ebd
000003b0: 9f09 3bbd c5b3 713d eaa6 af3d 08ea 293e
000003c0: 7684 2c3e 464f 683e ab60 303e 1fe7 493e
000003d0: 85ed 0b3e 4588 1abd ddf0 2b3b 3fe6 2cbd
000003e0: 2d0d 7fbd 022e 893d d554 123e eb7c 0cbd
000003f0: 7db8 c23b fc2c cfba e76c a6bd 8476 c43d
0.17665707 0.30669722 0.30645365 0.13478073 0.28129452 -0.041188654 0.05705291 -0.05625059
0.0574397 -0.06307689 -0.14843313 -0.0074759624 0.06493725 -0.03513038 -0.0012025619 -0.05597192
0.16730207 0.13969144 -0.011295779 0.10067985 0.054558255 -0.09927313 -0.14755656 -0.018697312
0.24098198 -0.02935091 0.2111501 -0.06911646 0.06743105 0.119057 0.043397635 -0.0330501
0.0063428306 -0.047316715 -0.14300959 0.1035913 0.07392613 0.11124601 -0.0170437 -0.0039974656
0.104088545 0.1271755 0.08186711 -0.071588926 -0.013728707 -0.09308462 0.03814993 0.039438225
0.0016143629 -0.002005203 -0.013473673 -0.096950404 -0.017076075 -0.0408533 0.20378572 -0.054664325
0.060241368 0.11006468 0.10220628 0.07440992 -0.10868432 -0.021057034 -0.11299185 0.056999095
0.11893581 -0.097280614 0.18773794 -0.028686678 0.0766712 0.039480418 -0.0767806 0.29252422
-0.05452917 -0.029929763 0.07109341 0.015583321 -0.0125529105 -0.04819428 0.12536383 0.23632124
-0.017920937 0.1677838 0.031697217 0.051706888 0.10416229 0.0018327979 0.054465104 0.14747721
0.016761601 -0.041239645 0.17195958 -0.05943498 0.26532263 -0.079183415 -0.03696965 0.24656585
-0.17656527 -0.1462718 -0.10258029 -0.0396842 0.026901392 -0.026620593 0.021458052 0.11353327
-0.010732851 0.18505652 0.10998895 -0.0295488 -0.16102421 0.15310131 -0.023369355 0.12463978
0.05884467 -0.058651906 0.25952435 0.07515347 0.018410964 0.057592914 0.10392197 0.115548335
-0.28293976 -0.20735477 0.16667323 -0.02264071 0.041927144 0.015022123 -0.05785654 0.23862515
0.06536609 0.20546216 -0.05301442 -0.034143493 0.08814924 0.08710575 0.16139519 -0.029793235
-0.09549812 -0.06192704 0.25610104 0.06736844 0.07160316 -0.08028829 -0.0877279 0.24613707
0.2641896 0.18095809 0.121247396 0.007159634 0.25286552 0.21580356 0.15519768 0.17625588
0.1603953 0.062039517 -0.031759586 0.020886874 0.09642862 0.009545608 0.02783089 0.15187638
0.19457358 0.20466314 0.34009364 -0.09040612 0.112396315 0.13553292 0.054395895 0.19447322
-0.035916284 -0.030463537 -0.1835414 0.14815742 0.16890496 0.068412125 0.11241056 0.18376683
0.11512831 0.004756989 -0.027683632 0.039443944 0.039631344 0.18231574 -0.07682935 0.08875155
0.11991638 0.106304966 0.2393145 0.013662075 0.11703169 0.020556338 -0.051071014 0.1270995
-0.024322234 0.009500813 0.26856998 0.21916907 0.2527483 0.084058225 -0.07465226 0.012498237
0.14161828 0.08508781 -0.1818051 -0.100032665 -0.007868433 0.055508263 -0.120861165 -0.07806422
0.09327494 0.095524125 0.1947427 -0.06975924 0.25885773 -0.067097105 -0.16486515 0.06060732
0.002609401 -0.13492483 -0.110168524 -0.100395456 -0.06267441 -0.049878918 0.04927516 0.0023718835
-0.086660735 0.05453094 0.016944107 -0.06734008 -0.0013850662 -0.073482774 0.026657933 -0.04427452
0.18123172 0.19268192 0.1204705 -0.054215495 -0.045663472 0.059009332 0.08576758 0.16593182
0.16847405 0.2268649 0.17224376 0.19717072 0.13664825 -0.037727613 0.0026236095 -0.042211767
-0.062268425 0.066982284 0.14290173 -0.03429882 0.005942403 -0.0015806253 -0.0812624 0.095929176

weight_hh_l0 f4 [160, 40]
00000000: 4ce6 babc 8181 5f3e ad25 fbbd cb9c 9abd
00000010: 4d23 e2bc c9d2 c3bd 7871 4fbd fa7b c23d
00000020: d50d 563e c3a2 14be 1248 8c3d 5f18 183e
00000030: e804 0bbd 6043 11be ad66 35be 52af abbd
00000040: 8c0f 9d3d 8322 a33d b69b 563e 2bdf b0bd
00000050: cd22 203e b33b 153e df64 25bc b3d8 9abc
00000060: 2771 5c3e d921 cf3d 09ef ee3d 60e6 733e
00000070: 034b 4d3e 9d87 083d 52ad c4bc 16db a63b
00000080: 7a6a ca3d 69e7 cd3d 3819 09bd 4928 c63d
00000090: 183c 96bd 4d17 38bd fb42 22be fc06 243d
000000a0: c6eb 6b3d 3ca3 36bd 2775 9abd d0b2 aabc
000000b0: c4ff c13d 5a06 37bc bb97 a53d a74e 8a3d
000000c0: 789f c5bd 3c8e 833d 7028 163e 4aea fd3b
000000d0: 2f2d 903d 0c68 ec3a 1b7c 453d 106e 13bd
000000e0: 019f 353d 26b7 e8bd 1f0a 943c a2a3 6b3d
000000f0: a94e 363e 6be7 8ebc 6e45 9c3d 900f 36be
00000100: eea2 98bd 63bd cc3d b8ef f0bd 7d39 d23c
00000110: 75e1 a03d 973e 763d cd7c cc3d cb1d c63d
00000120: cda6 903c 728b 4fbd 8e89 7cbc ae51 2abd
00000130: 9af9 ac3d ad26 ae3d 031f 5a3d cac5 463d
00000140: 8872 ec3c 774c f9bc 8c4c 9b3d 5d75 1fbe
00000150: 7777 1ebe 74fd d43b d3cc d83b ad94 d4bd
00000160: 4fb3 163d c92e c3bd e6e3 00bd 76a0 4d3e
00000170: 0ed1 713c e222 39be 1e8a 5d3d 6119 8dbe
00000180: aac4 54bc 72e4 043e 8413 763e a110 4f3e
00000190: a46e 5d3e d7aa 103e 65c5 f4bd a9c5 0fbd
000001a0: a60a 203e a354 8d3c 2bf5 d03d a6b5 a9bd
000001b0: 2326 0e3e 3d4f 8c3d 9508 68bd c880 d53d
000001c0: 16a1 213e c5e5 0d3c 7021 8c3d df47 85bd
000001d0: b890 913b 4bf8 793c 7a26 df3d ba85 6c3e
000001e0: c50e 583c 87e3 123e 9c40 8abd ddb5 3dbe
000001f0: 48db 10be 8b4a b4bc 3665 3dbd ae68 45be
00000200: fa21 82bc b2b4 49be 36b1 053e 4a36 703e
00000210: 9358 283d 2207 3fbe af66 0d3e 180d 67be
00000220: d4c1 a53d 9dbf dd3d 3993 743e 63fd 4d3e
00000230: 5286 163e dfd2 1dbd 4750 543d 3286 353e
00000240: 0aed 563e 7c86 2b3e 6cd8 ab3d b9fc 383d
00000250: dffa 1fbe c7d0 263e 061e 84bc a7eb 2abe
00000260: 9ce0 12bd cb6d de3d b594 583e 6788 7c3d
00000270: f418 efbd fe4d 0ebe d5ac d2bd a35a 4b3e
00000280: fd8f 01bd 644d 013e 8f5f 373d a47d bfbd
00000290: e990 ee3c 3b38 21bd 5282 3d3e cb5a 0a3c
000002a0: 808f 0dbe 596a f4bc 6aa2 0d3e 13c4 aabd
000002b0: 478f 5e3d 10d5 7dbd 243b 563e 63f4 30bd
000002c0: 1113 0b3d 93b7 993d 4072 6c3c e56d ddbd
000002d0: 3886 f53c 6566 973d 3121 8c3d cc61 603c
000002e0: dd8a 50bd 1ade 153e 0c46 e0bc c3c9 22be
000002f0: 75b9 473e 17e2 acbd ff4d c2bc 2273 09be
00000300: da09 593d dc74 68bb c76e f23d e087 eb3d
00000310: 8f7b ac3d f4cd 76bc bd04 65bd 0c0c 74bc
00000320: 2ebd d9bd 73f1 1a3e e943 1e3e 7523 d4bd
00000330: 974e bf3c 1623 163c 8e49 fb3d e871 973d
00000340: 26d2 bc3d 0704 9abd f5f1 8cbc 4e9e 763d
00000350: ff79 5ebd b1f4 cd3d b7f2 e5bc 1953 f13d
00000360: 5da3 2cbc 2837 8bbd 8925 2b3e d6ca 02bd
00000370: 84b4 8c3d f495 40bc 63f3 1e3d 74cf 75bd
00000380: 669f f33d 7080 0cbe a6d5 bc3d ec97 d03d
00000390: 72a4 aebc 1f4e 62bc 8113 2abd 316c 9f3d
000003a0: 1d94 1c3e a75b 803d 95c1 d8bd e40e a0bd
000003b0: b0c5 f5bd 08bd 0c3c 23fb ec3c 68b7 bc3c
000003c0: fb21 49be de4d 383e 12c5 1cbe e3ca a93d
000003d0: 471d 82be 37f6 df3d 6d24 9c3d 7789 e2bd
000003e0: 5bc9 ff3d fd8e 40bd cad6 9ebc a4b9 69bc
000003f0: 0a11 6cbe 3aa2 76bd cecc f33d afed 833d
-0.022814892 0.21826746 -0.122630455 -0.07549437 -0.027604723 -0.095616885 -0.05064532 0.09496303
0.20903714 -0.14515214 0.06849684 0.14853047 -0.033940226 -0.14185858 -0.17714949 -0.08383049
0.07668981 0.07965567 0.20957837 -0.08636316 0.15638275 0.14573555 -0.01009485 -0.018902158
0.21527539 0.10113878 0.11666686 0.2381835 0.20048146 0.033332456 -0.024008427 0.005092035
0.0988359 0.100539036 -0.033471316 0.096756525 -0.07335681 -0.044944096 -0.15845864 0.040045723
0.057597898 -0.044589266 -0.07541876 -0.020837218 0.094726115 -0.011170948 0.08085581 0.06753283
-0.09649557 0.064236134 0.14663863 0.0077488767 0.07039868 0.001803638 0.04821406 -0.035993636
0.04434109 -0.11363058 0.018071232 0.0575291 0.17803444 -0.017444333 0.0763043 -0.17779374
-0.07452951 0.0999706 -0.11764473 0.025662178 0.078555025 0.060118284 0.09984741 0.09673651
0.017657662 -0.050670095 -0.015413655 -0.041581802 0.08446045 0.085034706 0.05325223 0.04852847
0.028863207 -0.03043197 0.075829595 -0.15572114 -0.1547526 0.0064999405 0.006616214 -0.1037992
0.036792096 -0.09530408 -0.03146734 0.20080742 0.014759315 -0.18079713 0.054086797 -0.27558425
-0.0129863415 0.1297777 0.24030882 0.20221187 0.21624237 0.1412767 -0.119517125 -0.035100613
0.15629062 0.017252272 0.10203012 -0.082866 0.13881736 0.06851051 -0.05664881 0.10424954
0.15784106 0.008660738 0.06842315 -0.06507849 0.0044423006 0.015256952 0.10896011 0.23097888
0.013187115 0.14344607 -0.067506045 -0.18526407 -0.14146149 -0.022008201 -0.0462391 -0.19278213
-0.015885342 -0.19697836 0.13055882 0.2345821 0.041100096 -0.18655065 0.13808702 -0.22563589
0.080936104 0.10827563 0.23884286 0.2011619 0.14699677 -0.03853118 0.05183437 0.17726973
0.2098886 0.1675052 0.083908886 0.04516289 -0.15623043 0.1629058 -0.016127598 -0.16691457
-0.035858735 0.10860785 0.21150477 0.06165352 -0.11674681 -0.13896939 -0.10286871 0.19858794
-0.03163146 0.12627178 0.044768866 -0.09350136 0.029121833 -0.039360266 0.18506745 0.008444498
-0.13824272 -0.029835867 0.13831487 -0.083381794 0.05433586 -0.06197077 0.20920998 -0.043201815
0.03395373 0.07505717 0.014431536 -0.10811976 0.029971227 0.07392577 0.06842268 0.013695192
-0.05091368 0.14635506 -0.027377151 -0.15897278 0.1950434 -0.08441561 -0.023718832 -0.13422826
0.05298791 -0.0035470044 0.11837535 0.115005255 0.084220044 -0.0150637515 -0.055912722 -0.01489545
-0.10631786 0.15131168 0.15455593 -0.103583254 0.023352904 0.009163639 0.12269889 0.07394773
0.0921977 -0.075202994 -0.017205218 0.060209565 -0.054315563 0.10056437 -0.028069837 0.11783428
-0.010536996 -0.067976296 0.16713537 -0.03193172 0.06870368 -0.011754502 0.03880633 -0.060012296
0.11895637 -0.1372087 0.09220438 0.10185227 -0.021318648 -0.013812571 -0.041522507 0.07784308
0.15290876 0.06267481 -0.10583798 -0.0781534 -0.120005965 0.00858999 0.028928345 0.023036674
-0.19641869 0.17998454 -0.15309551 0.08290651 -0.25412962 0.10935634 0.07624135 -0.110613756
0.124895774 -0.047011364 -0.019389529 -0.014265452 -0.23053375 -0.060213305 0.11904298 0.06441819

bias_ih_l0 f4 [160]
00000000: b13d 5f3e d1c0 023e a6c8 053e 04df 9d3e
00000010: 7ec6 b53b f6a3 713e bc04 b73d e676 f9bc
00000020: fdae 1e3e 8e90 a73d 44be 553e 6f39 53bd
00000030: 5045 ef3c 8124 913d 2da1 933e 98bb 363e
00000040: d781 133e f840 273e bc38 79bc a943 8a3e
00000050: f722 d03d 001d 273e e2e4 a13e f718 a43d
00000060: 8804 c13d 14d6 663e 9d44 dc3a 92c5 913d
00000070: 8a0b 713e 6330 043e 4793 13be 2f47 343e
00000080: e61e 663d c24e 813e 261a 2b3e 4fc8 c03d
00000090: 34f1 b03e 2f23 b7bd 91a5 7d3c 7a5c 963e
000000a0: 1d9b 163e b6a1 df3d 7930 f9bd c15c 04be
000000b0: 323a 513d eebc a8bd 221d ee3c 5287 143e
000000c0: f032 c23d efe5 cbbb db76 983d e70f ed3d
000000d0: d261 08be 9ad5 423e c70d bf3d dfe2 fabd
000000e0: 8ccc 48bd 07dc 133d 27f4 f7bd 9e35 163e
000000f0: 8592 623e d20a b33d 0c7d fa3d 548c 1e3c
00000100: 9d3b ce3d 4dc8 413d 5078 e53b f1de a5bc
00000110: 864a 123e 248d 803d e975 f33d 8da9 3fbd
00000120: b193 c0bd 21a2 173e 8c4c 31bd 019f ec3d
00000130: 1685 f63b e19c 9ebd c79e 30be d781 143e
00000140: d4cc f8bd ab73 c03c 6541 e73b e0ed c2bd
00000150: c4ed 75be 717c 4dbd 97ae 453c 93cb 7dbe
00000160: b6c7 55bd 498e 0ebe e1ee b2bd 3ad6 123e
00000170: 03f4 34be b6c7 7c3d 490b fa3c 1865 aa3d
00000180: 12ad 16be 2577 cd3d 7f0f c83d 5c9e 9a3c
00000190: 128d 863e 159b 413d 873a f43d a454 473d
000001a0: a96f 873d 3c91 1b3e ee49 1a3e 1ad3 913d
000001b0: 03dd d4bc ba2a 4d3e 16c9 263d 4589 8f3a
000001c0: b822 893b 77f1 bd3d 86ad e23d 8b2e 613d
000001d0: f8e2 f4bc 68a7 0abe 84ae c3bc a075 1f3e
000001e0: 19f1 bf3c 5d90 743d 7d03 603e bdf5 313e
000001f0: f47e 353e a0c9 8dbc f938 b13e 4108 2d3e
00000200: 48d9 cc3d aba4 153e f69f 453e 1fef 383e
00000210: 0b36 03bd 67ec 44bb 5520 113e 53c4 6f3e
00000220: 95b5 913e 81fd 273e fd25 253e 85e8 673e
00000230: 7e74 9a3d 48a5 8d3d 62ea 1b3e 6368 833e
00000240: ddba 303e e675 fcbc 6e2d 713e bf90 483d
00000250: 8420 c73d 86cc 243e 6d03 143d d43d 233e
00000260: 70b5 833e 42d1 a8bb 1af2 663d b631 893e
00000270: e6fa 523d db17 743d 4af6 993d 9cca e73d
0.21800877 0.12768866 0.13064823 0.3083421 0.0055473438 0.23597702 0.0893645 -0.030452203
0.1549644 0.081818685 0.20873362 -0.051568445 0.029207855 0.07087041 0.28833905 0.17844999
0.14404999 0.16333377 -0.01521128 0.27004746 0.10162919 0.16319656 0.31619936 0.08012574
0.094246924 0.22542602 0.0016805116 0.07117762 0.23539558 0.12909083 -0.1441165 0.1760528
0.05618181 0.252554 0.16709194 0.09413206 0.34559023 -0.089422576 0.015481369 0.2936743
0.14707609 0.10919516 -0.121674486 -0.12926008 0.05108089 -0.082391605 0.029066626 0.14504746
0.09482372 -0.0062224786 0.07444545 0.11575299 -0.13318565 0.19026795 0.093288 -0.122503035
-0.049023196 0.036098506 -0.12107115 0.14668891 0.22126205 0.08742298 0.12230882 0.0096770115
0.10069964 0.047310162 0.0070028678 -0.020247908 0.14286241 0.062769204 0.11887724 -0.046792556
-0.0940317 0.14807941 -0.04328589 0.11553765 0.0075231893 -0.07744766 -0.17248069 0.14502655
-0.12148443 0.023492655 0.007057356 -0.09518027 -0.24016482 -0.050167505 0.012065551 -0.24784689
-0.052192412 -0.13921465 -0.08736969 0.14339533 -0.17671208 0.061713897 0.03052296 0.08320063
-0.14714459 0.10032491 0.09768581 0.01887434 0.26279503 0.04726704 0.11925226 0.048664704
0.06613094 0.15192121 0.15067264 0.071203426 -0.025984293 0.2003583 0.040719114 0.0010950944
0.004185047 0.092745714 0.11068253 0.054976027 -0.029893383 -0.13540423 -0.023886926 0.15572214
0.023430394 0.059707988 0.2187633 0.17378898 0.1772421 -0.017308056 0.3461378 0.1689768
0.100023806 0.14613597 0.19299302 0.18059967 -0.03203396 -0.0030048133 0.1417249 0.23414735
0.2845885 0.16405298 0.16127773 0.22647293 0.0754175 0.069162905 0.15226129 0.25665578
0.17258783 -0.030817937 0.23552486 0.048966166 0.09722999 0.16093644 0.03613608 0.15941554
0.25724363 -0.0051518986 0.05638323 0.2679574 0.051508807 0.059593063 0.07517679 0.113179415

bias_hh_l0 f4 [160]
00000000: 4e47 7c3e edb9 10be 27b9 193e 18f9 8a3e
00000010: 16a2 8a3e 5db7 5c3e 835a 433e 9fd4 403e
00000020: 0d2a 9e3e 92ef 933d 9b05 813b 7adb 173d
00000030: bc40 8abc 4f11 833e a67f 473d 53f6 b83d
00000040: 3de7 8a3e 560d 4b3e 1449 763d e30a 2a3e
00000050: 169d 843e e21b 443e 0864 0a3e fa36 8c3d
00000060: 2e89 563e 1e07 4d3e a8d2 3d3e 074b b73d
00000070: f6d9 423d d95c 853e 8310 1ebd 967b bc3c
00000080: 07c2 31bc 81c0 b43d f8d0 d53d 87d6 903e
00000090: e314 4b3e c7ec 0f3e afcd 39bd ecc0 853d
000000a0: 1074 2f3d 8b1e 52bd 0a8d 1ebd 92bf babd
000000b0: 2c3d 313c 17b2 4dbd ef00 ad3d a562 6abd
000000c0: 9092 053d c066 023e 26a9 6c3d 5f27 cbbc
000000d0: fced ad3d 9f2e c3bd 0559 da3d b010 c33d
000000e0: fdb0 06bd 0a9f 34be 31a8 fdbd f4a7 fe3d
000000f0: bf64 923d c3cb e03d 9f7c 163e 945a 6e3d
00000100: a227 05be 57e7 053e 4c69 a8bd a46a 343c
00000110: 53ff 5f3d 16f9 283d ed34 11bd 3ab7 d63d
00000120: 3b96 85bd ad19 2f3e 4333 bfbd 09c7 57bc
00000130: c7f2 c43c 9455 c73b 00dc ec3d c65f 97bc
00000140: e5aa 013e e8ea 153e 4d2b e6bc b5d7 06be
00000150: 592f c1bc 83bc 48be 3fef 69bd 32a3 7dbe
00000160: 7ace 24bd 819b 25be 6464 f43d f25a ed3d
00000170: 409a 04be b398 43be 1c31 733a 8d78 31be
00000180: bc1b 58bd 195e 48be 9346 4b3e f675 2b3d
00000190: 45bb 813e f678 173e ece5 afbc 5b67 0c3e
000001a0: dbb6 283e f05b 053d 4fbf e7bc 9178 f43d
000001b0: 8855 82bd 951f c13b 243e d3bd 38a9 c4bd
000001c0: 75da 5a3e cbc0 f43d 3aa4 593e b1e1 11be
000001d0: ff7b f1bd 1c18 1fbe d08a d8bd 92cb b93d
000001e0: c8fe 933d 994f f7bd f322 f93d 5292 c33c
000001f0: 3522 163e 3d2d 7c3e b815 1b3e b04f 5e3e
00000200: 2d0d 383e d63b 10bd 4672 133e 2378 683d
00000210: 455a 9f3c fb9b ae3d cea0 cbbc 70f5 8b3d
00000220: d8da b33d 2bb2 37bc 9091 893d b025 753e
00000230: dc05 ef3d 7ff3 853e 24a5 8a3e c035 9e3e
00000240: 8cc6 a13d 3243 9e3d ebf9 9d3d 98af e13b
00000250: 1806 e63d d1ae 4e3c 920b 133e 0f5f 483e
00000260: 7b5a e53c 2b12 7e3e a3a3 d0bc a373 4c3e
00000270: 934c 6e3e 0b05 93bd 0778 393d 8a11 963c
0.24636576 -0.14133425 0.15012036 0.27143168 0.27076787 0.21554323 0.19077496 0.18831109
0.30891457 0.07223429 0.003937436 0.037074544 -0.01687657 0.25599143 0.04870572 0.090313576
0.27129546 0.19829306 0.060128286 0.16605715 0.25901097 0.19151261 0.13514721 0.068464234
0.20950767 0.20022246 0.1853739 0.08949857 0.047571145 0.260474 -0.038589966 0.02300815
-0.010849482 0.0882578 0.10440248 0.2828867 0.19832186 0.14055167 -0.04536217 0.065309376
0.042835295 -0.05129866 -0.038708724 -0.091185704 0.010817807 -0.050218668 0.08447444 -0.05722298
0.032610476 0.12734509 0.0577785 -0.024799047 0.084926575 -0.09530377 0.106615104 0.09524667
-0.032883633 -0.17638794 -0.123855956 0.12434378 0.07148122 0.109763645 0.14695977 0.05819185
-0.130034 0.1307653 -0.08223209 0.011011753 0.054686856 0.04125317 -0.035450865 0.104841664
-0.06522795 0.17099638 -0.09335949 -0.013170012 0.024041547 0.0060831998 0.11565399 -0.018478286
0.12662847 0.14640391 -0.02809682 -0.13168223 -0.023582147 -0.19603162 -0.05711293 -0.24769285
-0.040235974 -0.16172601 0.119332105 0.11589612 -0.12949467 -0.19101219 0.0009277032 -0.17331143
-0.052760825 -0.19567145 0.1985114 0.041860543 0.25338188 0.14792237 -0.02147194 0.13711302
0.16476004 0.03255838 -0.028289465 0.11937059 -0.0636397 0.0058936574 -0.10314587 -0.096025884
0.21372397 0.11950835 0.21254054 -0.1424625 -0.117912285 -0.15536541 -0.105733514 0.09072031
0.0722633 -0.12075729 0.12164869 0.023873482 0.14661486 0.24626632 0.15145004 0.21710086
0.17973776 -0.035213314 0.1439906 0.056755196 0.019452224 0.08525845 -0.024856951 0.06833923
0.087819755 -0.011211912 0.06717217 0.23940158 0.116710395 0.26162335 0.27079117 0.30900383
0.07899198 0.0772766 0.07713684 0.0068873875 0.11231631 0.012614922 0.14359882 0.19567512
0.027997246 0.24811618 -0.025468653 0.19965987 0.23271398 -0.07178696 0.045280483 0.01831891

weight_ih_l1 f4 [160, 40]
00000000: f911 f9bc 2ff1 3fbd a668 fbbd fb34 fbbc
00000010: c4a9 8c3c 658b 40be 9a18 08be 9c7e 28be
00000020: 0871 eebd 0f64 b5bd 73d1 593d 00b8 2b3d
00000030: a6a3 273d 797f 533c d441 af3c b684 0abe
00000040: 8662 a23b 5a4f 86bd b9b8 1d3e f9eb 643d
00000050: 0cf9 2f3e a787 293d 7c39 793d eeec 263e
00000060: 096c cfbd cddb 803d ce52 933e e03c ce3d
00000070: 771d cabd 0e1c 3a3d 3e8e 41bd 4793 21bd
00000080: 2094 a83c c554 403e fa4a 4f3e 7602 2abd
00000090: edf6 3cbd e985 893d 2c1b 14bd d371 6f3d
000000a0: 73e8 84be c578 2e3e 5b8d 16be f8f9 2bbe
000000b0: 6706 84be eaf8 6abd 901f 873e 22ed 26be
000000c0: 52e3 de3c 2a08 24be 06fb a8bd 59fe 8c3e
000000d0: b6b8 7cbe cfd9 a9bc ec14 86be 09d9 97bd
000000e0: 8e19 ea3d 30f1 b3bd 3ee4 393e 334d 1b3e
000000f0: 0cc8 1e3e dbf7 603d f3f2 393e e292 7abd
00000100: 18be 033d 77d6 333d a769 7e3e d7d0 763e
00000110: 8f84 e73d 3bb3 893e 0c64 5e3d ad86 54bd
00000120: 1f4a 723d 8f46 cb3c 8ef2 f03d 0553 9b3d
00000130: aaae d93c f145 aabd aa66 423d 01d1 a53e
00000140: f542 8f3c 0477 1abe b838 613d b4df 19be
00000150: 3433 633d c004 49be 6621 05be 23d8 52be
00000160: 9af8 6ebd 9f9d be3d 7070 24bd 70bc b8ba
00000170: 4948 833d 03bf 16be ff43 493e e1a6 55bc
00000180: 3c18 673a 8b3e bc3d ac31 363e 1c04 d1bd
00000190: 09cd 3c3d 5e3a 64bd 8bcf 9dbd 3238 ddbc
000001a0: 0796 fabd e0cc a73d da59 553e 4dfe 153c
000001b0: 9316 48be e4a7 43bd b73c 073e 31ca 903d
000001c0: bb70 d23c f9ea 173e f878 5a3c 17e3 54be
000001d0: 28ac ad3d e8f3 ae3d 1e55 87bd 71dd 343e
000001e0: 8df9 e3bd 7ff8 d43d 43e3 21bd 4c51 5cbd
000001f0: 5a3d e5bd e28f 8a3d 6057 423e c15b 4bbe
00000200: 1aec 25bd 7aab 86be 5ad9 2a3e ed1d 4d3e
00000210: 12d0 30bc 4609 febd ea27 debd ad55 48be
00000220: ca0e f4bc 5dd6 0ebd 5f6b 663e e450 2b3c
00000230: 6c74 093e a203 f13d 9bfb e7bc a234 02be
00000240: 7e01 5e3c fbda 233d efbc 243d 01e2 a2bd
00000250: feb6 ed3d f983 473e 0758 7ebc 45e2 e7bd
00000260: 22da 3f3e 94cd 10be 455f af3d 5719 a53d
00000270: 14f6 2fbe 7000 93bd 21f8 033e 2428 b03e
00000280: ab41 f6bd 5091 423d 664c 533e 9c89 92be
00000290: 7a4d 3bbe 0123 8ebe 970c 063e 9f89 00be
000002a0: e1c6 823d 8fd6 b0be 6143 ab3c b546 543e
000002b0: 1aca 3cbe 1a8f ccbd ab2e 713e 2fa5 b0be
000002c0: b1ab 063c 0d20 bd3d 3d07 913e 3e7f aa3c
000002d0: 9fdc 1b3e 4f4f 5f3e 2491 e1bc 5af2 363e
000002e0: 7803 083e dac1 a53d 56b4 a13d 6509 563d
000002f0: 0895 353e fbc1 533e 2dba 93be 0b6c 18be
00000300: a0d8 b93e 6d96 143e 1413 b43e aa41 4cbe
00000310: f971 29bd e9ec acbe 8b40 313e 940d 583e
00000320: a02d 7bbd 015e c13c 4a9c d4ba 5c48 91bd
00000330: 1423 dabc d952 9b3d 754f 203d 9449 2fbe
00000340: 16e3 4f3e 0f22 d43c ca73 9cbc fe11 bf3c
00000350: abfe 3bbe dc2a 32be d800 5fbe c902 763c
00000360: f132 853d 3633 1d3e 7785 143e 0d30 ac3d
00000370: 0dd8 ae3e 0827 06be 84b6 23bc 9c43 ae3b
00000380: d0d6 493e 1088 713d a097 0d3e 6076 1c3d
00000390: 5ff7 e63c 8d32 a03e 8279 28be 89ef 973b
000003a0: acf4 3b3e 854c 2ab9 7d9b 643e a971 233e
000003b0: b3ac 16be b44b 8c3c ad0c 963d 3bcc a33e
000003c0: 5f08 08be 4d8a 5a3d 67d0 c3bd 39a2 7abe
000003d0: f37b 5dbe 3d30 f6bd 05f8 793e 26cc 89bd
000003e0: 61c1 223e 0e97 d2bd cdbb cf3c adcf 423e
000003f0: 03ef 6fbe 79c9 7fbe 406d 7cbe 4e32 01be
-0.030404078 -0.04686087 -0.122758195 -0.030664911 0.017170794 -0.18803175 -0.13290635 -0.16454548
-0.11642653 -0.08856975 0.053178262 0.041923523 0.04092755 0.01290881 0.021393694 -0.13527188
0.0049555926 -0.06558104 0.15402497 0.055889104 0.17184848 0.041389134 0.060845837 0.16301319
-0.10128028 0.06291924 0.28774112 0.10070205 -0.09868901 0.04543691 -0.047254793 -0.039447095
0.020578444 0.18782337 0.20243445 -0.041506253 -0.046133924 0.067149945 -0.036158726 0.05845816
-0.25958595 0.17038257 -0.1470236 -0.16794574 -0.25786135 -0.05736629 0.26391268 -0.16301396
0.027208004 -0.1601874 -0.08251004 0.27537802 -0.24679837 -0.020733742 -0.26187837 -0.07414443
0.114306554 -0.08786237 0.18153474 0.15166168 0.15506 0.054923873 0.18159084 -0.061175235
0.03216371 0.0439057 0.2484499 0.24103104 0.113045804 0.26894554 0.05429463 -0.05188625
0.05915272 0.024813918 0.11765014 0.07584194 0.026572544 -0.083141215 0.04746119 0.3238602
0.017487982 -0.15084463 0.05498573 -0.15026742 0.055468753 -0.19630718 -0.13001022 -0.20590262
-0.058342554 0.093074076 -0.04014629 -0.0014094245 0.06410272 -0.14721303 0.19654845 -0.013040275
0.0008815562 0.091916166 0.17792386 -0.10205862 0.046093974 -0.055719726 -0.07705601 -0.027004335
-0.12235647 0.08193374 0.20835057 0.009154868 -0.19539861 -0.047767535 0.13206755 0.07069815
0.02568852 0.14835729 0.013334505 -0.20789753 0.08480102 0.08542615 -0.06608032 0.17662598
-0.111315824 0.10398959 -0.039523374 -0.05378847 -0.111933425 0.06765725 0.18978643 -0.1985922
-0.040508367 -0.263027 0.16684476 0.20030947 -0.010791795 -0.124041125 -0.10847457 -0.19563933
-0.029792208 -0.0348724 0.22501896 0.010456298 0.13423318 0.11768271 -0.028318217 -0.1271539
0.01355016 0.040003758 0.040219244 -0.07953263 0.116071686 0.19483937 -0.015523917 -0.11322454
0.18735555 -0.14140922 0.08563093 0.08061474 -0.17183715 -0.07177818 0.12887622 0.34405625
-0.12024244 0.047501862 0.20634612 -0.28620613 -0.18291274 -0.2776108 0.1309074 -0.12552498
0.063855894 -0.34538695 0.020906152 0.20730098 -0.1843647 -0.09988232 0.23552959 -0.34501025
0.008219645 0.09234629 0.28325835 0.020812627 0.15220879 0.21807598 -0.027535029 0.17865887
0.13282573 0.08093615 0.078957245 0.052255053 0.17732632 0.20679466 -0.28852978 -0.14884965
0.36298084 0.14510508 0.35170805 -0.19946924 -0.04136846 -0.33774498 0.17309777 0.2109893
-0.06132281 0.023604395 -0.0016220894 -0.070938796 -0.026628055 0.07584161 0.039138276 -0.17117912
0.2030147 0.025895147 -0.019098181 0.023324009 -0.18358867 -0.17399162 -0.21777666 0.0150153125
0.06503857 0.15351567 0.14504038 0.084076025 0.3414921 -0.13100827 -0.009992246 0.0053181183
0.1971085 0.05896765 0.13827372 0.03819883 0.028194128 0.31288567 -0.16452602 0.004636709
0.18355054 -0.00016240969 0.22324939 0.15961327 -0.14714317 0.017125942 0.073266365 0.31991753
-0.13284443 0.05335455 -0.09561234 -0.24475946 -0.21629314 -0.120209195 0.24411018 -0.06728391
0.1589408 -0.10282718 0.025358105 0.19024535 -0.2343102 -0.249792 -0.2465105 -0.12616846

weight_hh_l1 f4 [160, 40]
00000000: cac6 cf3c eb48 b83c 56b7 e53d 0e2f 1f3d
00000010: e63b 20bd 0fe4 c0bd ef8b 94bd 8b8d 09be
00000020: b280 473e 7fcc aebd 7dec c7bc 3ad5 593d
00000030: 60f0 d7bd 909c a1bd e015 a43d b8c2 9fbd
00000040: 6183 a4bc 5ec9 f93b 4695 c73c c213 2c3d
00000050: 1ded 01be 27f8 76bd 420a a83d 4dd1 76bd
00000060: 505a 29be 6fca 1ebe 7a11 ec3d 71b5 adbc
00000070: 61b1 edbd ba5c d5bc aea0 ff3c 777f b13d
00000080: cabe 19be 80ac c8bc 9898 a0bd 4b9d 34bd
00000090: 7685 7f3d ac41 3dbd b341 f4bd 2cf8 a6bd
000000a0: d9d7 383d a7b2 27be aeda 223e 3ff7 a1bc
000000b0: d837 913e 0283 d3bd 7ac3 c53c ef20 b6bd
000000c0: 68ba 913c 7602 65bd 4736 6e3d bad9 fe3d
000000d0: d3bc 9c3a 7d5c f2bc 3f42 edbd 0184 6a3d
000000e0: c299 edbd fad5 fa3d e08f fb3c 237f 153e
000000f0: 08cb ea3d 97d5 853d db80 8b3d 9a1b 063e
00000100: e8f7 20be 3a47 82bd 9387 e1bc 44ac ecbd
00000110: 424a c93d 5118 533e d3a0 5abe b7a4 043b
00000120: 554d b23d 4e4d a03d 9d63 cf3d 21f6 153e
00000130: c4d3 2fbe 4c75 ddbd b665 c7bd ec3d 1f3e
00000140: 2126 ca3d 4109 253e 402f 073e f7ae 7fbd
00000150: adb4 ddbc 695d 46bd 9b44 c73b a80a 843d
00000160: 67e2 1b3d defe bbbd a2d5 fd3c 4614 9a3a
00000170: cc76 403d f6d4 a2bd 1cce cf3d 4aa0 4cbd
00000180: 8a78 0abe e7dd 543d 165e b63d ea96 433d
00000190: 1740 f53d 0ed4 ddbd 40c1 1a3e ac73 5aba
000001a0: df5e cc3b a0d9 413d 6d15 e6bd b049 4d3d
000001b0: a544 113d 2f65 67bd 70d6 74bd c98a 3c3e
000001c0: f4aa 87ba 7348 0cbe 89f4 e53b 0943 76bc
000001d0: 214b 553d 5588 ee3c d536 38bd 7788 443d
000001e0: ece3 c93d 6bcf d63b b720 42bb 3e81 ad3c
000001f0: 1a0a 3b3e 4a12 8d3c b5f7 acbc 6166 073b
00000200: 88aa bfbd e229 35be 4fd5 eb3d 2fa0 4b3e
00000210: 67a1 143d 1822 d7bc 0807 063d 8278 133e
00000220: 6caf fcbd c407 d6bd ced3 dfbd 98c7 673e
00000230: 295c 703c 8e02 163d c777 a2bd a198 0e3e
00000240: 87d2 a53d f90f 28be ce67 1cbe f51a 19bd
00000250: 3f8a 233d 43f5 e23d a5f9 76bd b86a 5a3e
00000260: 4a56 343c 9b8e e83d 2fd4 94bd d350 ab3d
00000270: 73b8 c7bd 4c85 353d 7d97 0bbe 3084 f23d
00000280: a07a 1f3e 943b d43d 2718 693e 3b1e 113e
00000290: 9632 8dbc 53eb 803e 12ee 033e 5d1c 3bbc
000002a0: 78a8 ab3d 1bce 2dbe ecb5 733e e5ad 9b3d
000002b0: 1456 4dbe 831e eebc d931 01be 8257 b23d
000002c0: df60 cebd 71c1 f6bc 80d1 333e abcd 783d
000002d0: a46a 8fbc 97bb 3bbd 4bc4 cc3c 3ddc 2d3e
000002e0: 447c a8bd e5ca 693d 4ea8 7cbd 1b61 5ebe
000002f0: 57bb 79bd 7e1d 30be 032d 40be ab23 583d
00000300: 6f8e 1d3e a323 a6bd 5577 c5bd cc7c e0bd
00000310: 5f5b 833d 0754 a2bd 2d5b 08be 5927 353d
00000320: 5b60 043e 0651 833d 50b0 c9bd c043 adbd
00000330: 5e3b 893e 4f54 0a3e 3720 a3bd f0c0 85bd
00000340: b28f 34be 11ea 5e3c 7da1 bfbd d72b 183e
00000350: c8a6 8a3b efde 6abd 757e e8bb de76 9e3d
00000360: 573c 24bd 9e1c 2e3e df0a c6bc c46d b73d
00000370: 92ad 733d 69f5 03be 6878 a9bd 38cc c6bd
00000380: 546b c23c e38b a7bc 73b1 a43d 51f6 d33a
00000390: e496 39be ac03 393c 409c 32be f0ce ba3d
000003a0: 7511 69bd 4c12 17bd 0127 133d e21d 11be
000003b0: ccd9 e33d 2cd4 43be 997d 15bd 8eb9 963d
000003c0: d5fa 293e 26ab 81ba 8a6e a23d 8b60 313e
000003d0: c751 4dbc 1cdb 77be 5750 16bd 8b1b 0c3e
000003e0: aa37 bc3d e844 2ebe f2f1 043e bcd2 883e
000003f0: c062 f4bc a1ce e33d ca21 ef3c 2a37 5abc
0.025363345 0.022495707 0.11216609 0.038863234 -0.039119624 -0.09418499 -0.07253253 -0.134329
0.19482687 -0.08535098 -0.024404759 0.053181864 -0.10543895 -0.0789119 0.08011985 -0.078008115
-0.020082178 0.007622882 0.024363171 0.04201103 -0.12688108 -0.06029525 0.082050815 -0.0602582
-0.16538358 -0.1550691 0.11526771 -0.021204682 -0.11606098 -0.026045192 0.031204548 0.0866689
-0.15014187 -0.024496317 -0.07841605 -0.04409532 0.062383138 -0.046205208 -0.11926594 -0.08152804
0.045127723 -0.16376744 0.15903732 -0.019771216 0.28362918 -0.10327722 0.024141062 -0.08893
0.01778908 -0.05591055 0.05815723 0.12443872 0.001195813 -0.029585117 -0.11584901 0.057254795
-0.116015926 0.12247844 0.030708253 0.1459928 0.114645064 0.0653488 0.068116866 0.13096467
-0.15719569 -0.06361242 -0.027530467 -0.115562946 0.09828617 0.20614745 -0.21350412 0.002023978
0.08706156 0.07827245 0.101264216 0.14644672 -0.17170626 -0.10813388 -0.09736197 0.15550965
0.09870554 0.16116811 0.13201618 -0.06242272 -0.027063692 -0.048428927 0.0060811765 0.06447345
0.03805771 -0.091794714 0.030985657 0.001175531 0.046988294 -0.07950775 0.10146734 -0.04995755
-0.13522545 0.051969435 0.08904664 0.047751345 0.11975115 -0.10831462 0.15112782 -0.00083332765
0.0062368955 0.047326684 -0.112345554 0.050119102 0.035465855 -0.05649298 -0.059774816 0.18412317
-0.0010350631 -0.13699512 0.0070176763 -0.015030631 0.0520736 0.029117743 -0.044974167 0.047981706
0.09857926 0.006555488 -0.002962155 0.021179792 0.18265572 0.017220635 -0.02111421 0.0020660388
-0.09358698 -0.17691758 0.11515295 0.19885324 0.036286738 -0.026261374 0.03272155 0.14401439
-0.123381466 -0.104507 -0.109290704 0.22634733 0.01467041 0.03662353 -0.07933002 0.13925411
0.080967955 -0.16412343 -0.15273973 -0.037379224 0.039926764 0.11081936 -0.060296673 0.21329772
0.011006901 0.11355325 -0.07267033 0.08365025 -0.09751978 0.044316575 -0.13632007 0.11841619
0.15574121 0.10362926 0.2276312 0.14171688 -0.017236035 0.25179538 0.12883785 -0.011420337
0.08381742 -0.16973154 0.23799866 0.07601527 -0.20052367 -0.029067283 -0.12616672 0.08708097
-0.100770704 -0.030121537 0.17560387 0.060743015 -0.017506905 -0.045833196 0.024995944 0.16978545
-0.08226827 0.05707826 -0.061683945 -0.2171673 -0.060969677 -0.1719875 -0.1876717 0.05276839
0.15386365 -0.08112266 -0.096419014 -0.10961303 0.06413912 -0.07926183 -0.13316031 0.044226978
0.12927382 0.06411938 -0.09848082 -0.08460188 0.26803106 0.13508724 -0.07965129 -0.065309405
-0.1763294 0.0136056105 -0.09356973 0.14860474 0.0042313077 -0.057341512 -0.007095153 0.07737516
-0.040096607 0.17003104 -0.024175106 0.08956483 0.0594917 -0.12886585 -0.08274919 -0.097069204
0.023732819 -0.020452445 0.08041658 0.001617143 -0.18123966 0.011292379 -0.17442417 0.091215014
-0.056901414 -0.036882684 0.03592587 -0.14171556 0.11125526 -0.19123906 -0.036496732 0.073596105
0.16599591 -0.0009892925 0.0793124 0.17321984 -0.012531704 -0.24204677 -0.03669771 0.13682382
0.091903046 -0.17018473 0.1298292 0.26723278 -0.029832244 0.11123396 0.029190917 -0.013318816

bias_ih_l1 f4 [160]
00000000: 5f39 813d 43e5 e23d 95ab c43d 2290 3d3e
00000010: f72a b33d 83fd 243d 6e43 953d f224 1b3e
00000020: 5a33 a43e e150 453e e6a1 723e eedf 073e
00000030: 95a9 5f3e 870a f53b d936 df3d 0533 083e
00000040: 893b a83d f2fb b83d 0c9b 243e a0af 633e
00000050: 015d 0ebe e144 d13d d3f8 6b3e 0299 a03e
00000060: eed3 bc3d 9812 153c 459e fa3c 4fba b7bc
00000070: a2ee db3d c533 6a3c 5772 3e3e 246a 733d
00000080: fc51 c33d cab2 7f3d 5164 863e 3b8f 193e
00000090: 663a 633e 8a9a bf3d d73e 873e 77a9 293e
000000a0: eed7 d43d 0e2b 193e 6113 f43d 4496 4a3d
000000b0: 1422 ee3b 48cb 103d bab2 76bd d154 b93d
000000c0: 0f52 5bbd 7987 07be 713a 61bd 0c4d dfbd
000000d0: 4e08 20bd e8c8 5a3e d1f4 26bb d9b0 bbbd
000000e0: d2a3 c5bd aedb dbbd e053 b03d 14ed d43d
000000f0: e024 393d c42f ff3d d53b 79bd fadb 8ebb
00000100: 0501 943c df14 72bd 9f2b 133e 9d26 28be
00000110: 3453 f83d f8fe 6abc eb04 613d 3b47 0f3e
00000120: e6fa 84bc c32c 5ebd e5a8 523e 77ee eb3d
00000130: d03b 3a3a d628 c63c 6259 463e 5f76 98bb
00000140: bf1a 1c3d 4e43 6f3c e121 cd3d 3a53 253e
00000150: 5e68 743e 0f91 19bd 492b ad3d 9232 4abd
00000160: 57fd 0f3e 2b2e df3c e2be 8a3d 1f9a 7e3d
00000170: 6e87 bbbc e3d5 263d d958 9dbd 14ed 163e
00000180: b05d 1e3e 40ac 57bd 2b2a 2fbe 57a8 fd3d
00000190: 4f68 b6bd c28e 7cbd a933 193e 2fab 6f3e
000001a0: c096 9b3d 335b 60bd 59bb 0e3d 48ca 7e3b
000001b0: 8291 34bd 2861 80bd e541 8abd 7378 353e
000001c0: c903 3a3d ed64 863c 90e8 d0bd 8c16 dbbd
000001d0: f3e1 7a3d 490c 863d 8def e1bd 2c84 2abe
000001e0: 8211 6c3e c9b6 6d3d 65c7 d73c 77ee 843e
000001f0: 4aa2 cb3d f8ba bf3d f677 a13e d474 2d3e
00000200: a08c 283e 219b 1d3d 8f1b d8bc 8b7e ffbc
00000210: 56b3 253e 6804 843d cbb8 633e 34f9 5a3c
00000220: 7c4e 7f3d d76d 843e fc2e a13d 1cee 0a3e
00000230: fb5e 2e3e 3c1a 5b3d 684a 013e c99c af3e
00000240: 514e 193e 29f8 463e 7ab2 ee3d 691b 153e
00000250: 6816 353e 26fb f83c f5a3 e63c 65e4 5e3c
00000260: 359b 3f3e 45e9 2bba c5ba e63d 2fa5 9b3e
00000270: 66fa 443e 0395 613d 1b4f 3e3e 52cf a53e
0.06309771 0.110788845 0.09603039 0.18512014 0.08748429 0.04028083 0.07288252 0.15150812
0.32070428 0.19269134 0.23694572 0.13269016 0.21842034 0.0074780616 0.10899133 0.13300712
0.082144804 0.0903243 0.1607477 0.22234964 -0.13902666 0.10218216 0.23044138 0.31366736
0.0922011 0.009098671 0.030593047 -0.022427706 0.10738875 0.014294569 0.18598305 0.059427395
0.09537122 0.062426366 0.2624841 0.14996044 0.22190246 0.09355648 0.2641513 0.16568552
0.10392748 0.1495783 0.11917759 0.04945971 0.007267246 0.035350114 -0.06022904 0.090493806
-0.053545054 -0.13235272 -0.054987375 -0.109033674 -0.03907042 0.21365702 -0.0025475512 -0.091645904
-0.09650387 -0.1073526 0.08609748 0.103967816 0.045201182 0.124602824 -0.060848076 -0.0043597193
0.018066892 -0.059101935 0.14372109 -0.1642098 0.12125245 -0.014343016 0.05493633 0.13992016
-0.016232919 -0.054241907 0.2057224 0.11520093 0.00071042497 0.024189394 0.19370034 -0.004652783
0.038111445 0.014603449 0.100162275 0.1614503 0.23867938 -0.037491854 0.084555216 -0.049364634
0.14061485 0.027243694 0.06774689 0.0621587 -0.022891726 0.040731322 -0.07682962 0.14738876
0.15465426 -0.052654505 -0.1710593 0.12385624 -0.08906614 -0.061659582 0.14961113 0.23405145
0.07597113 -0.054774474 0.034846637 0.0038877893 -0.04408408 -0.06268531 -0.0675085 0.17721729
0.045413766 0.016405547 -0.10200608 -0.1069766 0.06125064 0.06545312 -0.11032019 -0.16651982
0.23053554 0.058035646 0.026340196 0.25963184 0.099430636 0.09361833 0.31536835 0.16939098
0.16459894 0.03847802 -0.026380328 -0.03118827 0.16181692 0.06446153 0.22238462 0.013365079
0.062330708 0.2586505 0.0787029 0.13567394 0.1702842 0.053491816 0.1262604 0.34299305
0.14971282 0.19430603 0.116551355 0.14561237 0.17684329 0.030393194 0.028154353 0.013604258
0.1871155 -0.0006557892 0.11266092 0.30399463 0.19236144 0.05507375 0.18584864 0.32384735

bias_hh_l1 f4 [160]
00000000: bed6 cf3d e46f 423e ceed 5fbd 2e30 b73d
00000010: 3dc9 113e 3e2a 4f3d ac7f 5c3e 480a fa3d
00000020: 621a aa3e 8334 e23d 7bdf 273e 36f4 5fbc
00000030: 22e4 ec3c 9330 8cbd 3abd 423e 86e8 0a3c
00000040: 3f82 803e e28b 883d fef7 fc3d f8d9 c53d
00000050: 90e2 a2bd 3f34 893d 9419 303e f082 413e
00000060: 8580 733d 9ada b63d abaa 0d3e 2c6b 633e
00000070: 76b1 283e 2cfe 2d3e a3e4 b5bc 16a7 dd3d
00000080: e7b9 dbbd 161e f73c 767d 503e 4d49 573d
00000090: b39c 2b3e 7b53 28bd 862a 8f3d 712c 683e
000000a0: 51f4 2a3e fffa 1ebd d027 13be e8ae d2bd
000000b0: 75d4 103e a687 c6bc 4223 5e3c 3856 e5bd
000000c0: 8e98 4b3e 9f03 3d3d 31fe c8bd 4553 c2bd
000000d0: cfd3 69bd 7e7d 3d3d 4c29 02be 7252 9f3c
000000e0: b1d1 c9bd 4390 cdbd 1bdc e4bd 2f84 5a3e
000000f0: ee22 403d 7d84 86bd 2d72 4ebc 21be 233e
00000100: 94a8 013e c3e3 a73c 0179 b53d 5c96 18be
00000110: e1fc d8bd d245 69bd 3c82 193e db02 60bd
00000120: b6e2 bd3d ff7f b9bd 00ab ebba 913b 703c
00000130: a8f2 16bd edfd b43d 433f 573e 5a62 cdbd
00000140: b82e 8f3d a034 1c3e b015 0a3e acc7 84bd
00000150: c9ce fc3c 75dc 883d 715b bbbd 23a0 52bd
00000160: 1b77 373e 1058 f9bd 4891 f33d 2bc9 09be
00000170: e5c7 04be 7ac8 1cbe 6fd3 3cbd e2a7 123e
00000180: a5c6 c5bd 3c29 8ebc e7d1 2a3d 5f3b 443d
00000190: 47d8 11be 7250 f6bd bf48 4d3c af2e 64bd
000001a0: 9513 aabc 18fb 31be 9da0 1abe c5a4 d3bd
000001b0: 967a e3ba 4d8a d53d e86a 6dbc 140d 3c3e
000001c0: fd28 05be e683 2a3e 80d0 10be c9bc 4abd
000001d0: 2a1e 00bc 3418 bf3d 13fa adbd a028 e3bc
000001e0: 3c14 463e b7b6 b13d 615e cd3d 68f7 a03d
000001f0: 34a1 ed3d 4deb 0e3e 3bac 7c3c c5c6 1c3e
00000200: 362b 403e 63a1 623e 2aa7 823e 6351 dfbc
00000210: 34f6 603e 3733 463e 70fc d03c 0013 4a3d
00000220: 8d1b 9c3d 7020 ab3c dfe1 1b3e e909 9b3e
00000230: f193 7abd 6e71 713e e3d3 a23d cfbf 953e
00000240: ed67 823e c3b4 e13d 37af 9b3d b0ca 013e
00000250: 205e e6bc 2d01 29bd 8c21 363e 01aa 1ebb
00000260: e228 1d3e aafa f23b c389 713e 3fe6 013e
00000270: 4dea 923d ce6d 2b3e 4371 293e f545 103e
0.10148381 0.18987995 -0.054670148 0.089447364 0.14236923 0.050577395 0.21533078 0.12208992
0.33223253 0.11045172 0.16393845 -0.013669064 0.028917376 -0.06845202 0.19017497 0.0084782895
0.2509937 0.066673055 0.12351988 0.09660715 -0.079533696 0.06699418 0.17197257 0.18897605
0.059448738 0.08928414 0.13834636 0.22208852 0.16473946 0.1699149 -0.022203749 0.10822885
-0.107288174 0.030165713 0.2036036 0.05256014 0.16758995 -0.04109524 0.069905326 0.22673203
0.16694762 -0.038813587 -0.14370656 -0.10287267 0.14143546 -0.024234604 0.013558211 -0.111980855
0.19882414 0.04614603 -0.09814108 -0.09488539 -0.057086762 0.046262257 -0.12711066 0.019448493
-0.098544486 -0.10037281 -0.11174794 0.21339487 0.04690831 -0.06568239 -0.012600464 0.15990497
0.12661964 0.020494347 0.0886097 -0.14901108 -0.10595108 -0.05695135 0.14991087 -0.054690223
0.09271757 -0.090576164 -0.0017980039 0.014662639 -0.03685251 0.08837495 0.21020226 -0.10028525
0.06991333 0.1525445 0.13484836 -0.06483397 0.030860322 0.06682674 -0.091483004 -0.05142225
0.17916529 -0.12175 0.118929446 -0.13455646 -0.12966879 -0.1531085 -0.046100076 0.14321855
-0.09657029 -0.017353646 0.041704085 0.047908183 -0.1424266 -0.120270625 0.012529551 -0.055708583
-0.02076129 -0.17380941 -0.15100332 -0.10334162 -0.0017355259 0.104267694 -0.0144908205 0.18364364
-0.13003917 0.16651878 -0.14142036 -0.049496446 -0.007819692 0.09330788 -0.084949635 -0.027729332
0.19343656 0.08677428 0.10027767 0.07859689 0.11603013 0.13956948 0.015421922 0.153102
0.18766484 0.22131877 0.2551816 -0.027260488 0.21968919 0.19355474 0.025510997 0.049334526
0.076224424 0.02088949 0.15222882 0.30280998 -0.061176244 0.23578426 0.079505704 0.292479
0.25469914 0.11020806 0.07601779 0.12674975 -0.028121054 -0.041260887 0.17786235 -0.0024210217
0.15347627 0.0074151354 0.23587708 0.12685488 0.071735956 0.16741106 0.16547112 0.14089186
